predictor/best_model.pt (torch, 453177 bytes, 9 tensors)

embedding.weight f4 [2788, 32]
0	0x3f5d628e	0.8647851
1	0x3f52a803	0.82287616
2	0xbf37e77e	-0.71837604
3	0x3efc2bc6	0.49252146
4	0x3f2b5014	0.66919065
5	0x3efee384	0.49782956
6	0x3f60a972	0.87758553
7	0x3f2d3a50	0.676671
8	0xbeec0adc	-0.46102035
9	0x3cf80b24	0.03027875
10	0xbf56d9fe	-0.8392638
11	0xbfb21961	-1.3913995
12	0xbd52006b	-0.05126993
13	0x3eaddb47	0.33956358
14	0xbcb1e074	-0.021713473
15	0x3d97a8ad	0.07405219
16	0xbf3e18dd	-0.7425669
17	0xbf2f8d81	-0.6857529
18	0xbf577d6b	-0.8417575
19	0xbf5e9a82	-0.8695451
20	0xbf2cd397	-0.6751036
21	0xbf0a2ce1	-0.5397473
22	0xbedce87e	-0.43146127
23	0x3f13c641	0.57724386
24	0xbedbc41d	-0.4292306
25	0x401e49fd	2.473266
26	0xbf85bda0	-1.0448494
27	0xbedb2a50	-0.4280572
28	0xbed7c3a8	-0.4214146
29	0x3e09f179	0.13471021
30	0xbfa7a59b	-1.3097414
31	0x3ee4f0a0	0.44714832
32	0xbf51e8cc	-0.81995845
33	0x3f31d0f1	0.69459444
34	0x3e8ee33c	0.2790774
35	0x3f44f9e6	0.76943815
36	0x3f5ca890	0.86194706
37	0x3f8bb8fd	1.0915829
38	0x3e68cc4b	0.22734182
39	0xbf4e9c36	-0.8070711
40	0x3e3c2b77	0.18375956
41	0x3f914c99	1.1351501
42	0x3dd4db20	0.10393357
43	0x3f3e8897	0.7442717
44	0x3e4e1808	0.20126355
45	0x3dd0f524	0.10203007
46	0xbed067f5	-0.40704313
47	0xbe2b59f5	-0.16733535
48	0xbf092526	-0.5357231
49	0xbeb44b55	-0.35213724
50	0xbfa016e4	-1.2506986
51	0x3f7147e0	0.942503
52	0xbf546209	-0.8296209
53	0xbce7c010	-0.028289825
54	0x3fa07966	1.2537048
55	0xbf216f9e	-0.6306094
56	0xbf3fb301	-0.74882513
57	0xbf0d1df1	-0.5512381
58	0x3f1a0b63	0.60173625
59	0x3fc1fd37	1.51554
60	0x3f21882e	0.6309842
61	0x3c432ec7	0.011913008
62	0xbcc17e62	-0.023619834
63	0xbeab340b	-0.33438143
64	0x3c2c1acf	0.010504439
65	0xbe77e2f8	-0.24207675
66	0xbd895f51	-0.06707633
67	0x3f7bb4ac	0.9832256
68	0x3fd2f79c	1.6481814
69	0x3e8c19ba	0.27363378
70	0xbea5cfb4	-0.32385027
71	0x3f0de4c6	0.55427206
72	0xc0139b45	-2.306352
73	0x3f0de90e	0.5543374
74	0x3edc3f4a	0.43017036
75	0xbec9a842	-0.39386183
76	0xbf3b313d	-0.73122007
77	0xbf69494c	-0.9112747
78	0x3fad9ebc	1.3564067
79	0xbfd275c6	-1.6442192
80	0xbe0d2b77	-0.13786112
81	0x3faa7105	1.3315741
82	0x3f889fd4	1.0673776
83	0x3e563923	0.20920233
84	0x3e024d44	0.12724787
85	0x3f144857	0.5792288
86	0xbf7b26e7	-0.98106235
87	0x3eef03aa	0.46682483
88	0x3e2ff34b	0.17182653
89	0x3ea1c7fe	0.31597894
90	0xbd54e3e5	-0.05197515
91	0xbfd2d8bc	-1.6472392
92	0xbe8e78e3	-0.27826604
93	0xbba4b3c9	-0.005026315
94	0xbe717ce3	-0.23582797
95	0xbe2593cf	-0.16169666
96	0x3ff1d935	1.8894411
97	0xbf3fd6fc	-0.74937415
98	0x3f896676	1.0734394
99	0xbeee77a6	-0.4657566
100	0x3eaf7a3a	0.3427294
101	0xbed8a541	-0.4231358
102	0xbddeec65	-0.108849324
103	0x3f824f92	1.0180533
104	0xbf05cd51	-0.5226641
105	0x3f930403	1.1485599
106	0xbdb29eb9	-0.0872168
107	0xbfca1f6d	-1.579084
108	0xbf875dc5	-1.0575491
109	0x4001e457	2.0295618
110	0xbf457676	-0.7713388
111	0xbf8774b3	-1.0582489
112	0x3e7f3f13	0.24926405
113	0xbe962ad6	-0.29329556
114	0x3d9951b0	0.07486284
115	0xbf9bc613	-1.2169822
116	0xbddbd187	-0.107333235
117	0x3faf346f	1.3687876
118	0xc0209b73	-2.5094879
119	0xbee22ea7	-0.44176218
120	0xbe2cc9eb	-0.168739
121	0x3f2ce8e1	0.67542845
122	0xbf855376	-1.0416095
123	0x3d85ba38	0.06529659
124	0x3f6fa88f	0.93616575
125	0xbf9d8861	-1.2307245
126	0x3eba1e36	0.36351174
127	0x3f92fa6e	1.1482675
128	0x3f73ac18	0.9518447
129	0xc01befcc	-2.436511
130	0xbd9584f4	-0.073007494
131	0x3edd0886	0.43170565
132	0x3e440726	0.19143352
133	0x3f4748f2	0.7784568
134	0xbf5ccf03	-0.86253375
135	0xbdaf0691	-0.08546174
136	0xbfa88c0b	-1.3167738
137	0xbceb1d9e	-0.028700646
138	0xbf379ff7	-0.7172846
139	0xbf1e7c88	-0.6190877
140	0x3eba6c0f	0.36410567
141	0xbf2677bd	-0.65026456
142	0x3f2af91d	0.66786367
143	0x3f88a444	1.067513
144	0x3fb254e0	1.3932152
145	0x3f93cd0e	1.1546953
146	0x3f55e94b	0.835591
147	0x3ee070c8	0.43836045
148	0xbf71578c	-0.9427421
149	0xbf4c2a99	-0.797525
150	0x3f231974	0.63710713
151	0xbfed1676	-1.852248
152	0x3e590303	0.21192555
153	0x3f18fd7c	0.59761786
154	0xbf168eec	-0.5881183
155	0xbf5ed595	-0.8704465
156	0x400bf623	2.186898
157	0xbfa7c5eb	-1.3107275
158	0x3eaad85d	0.33368197
159	0x3ea85ee3	0.32884893
160	0x3ee02475	0.43777815
161	0x3ee4d5b1	0.44694284
162	0x3f8cff52	1.1015418
163	0xbed26815	-0.41095033
164	0x3f63ba7f	0.88956445
165	0x3dd83e29	0.10558731
166	0xbe48adde	-0.19597575
167	0x3f7f0d66	0.9962982
168	0xbff3532f	-1.9009761
169	0xbf6b3b8a	-0.91887724
170	0x3fa4f09e	1.288593
171	0x3f818eab	1.0121664
172	0x3decce8c	0.11562833
173	0xbf883a9a	-1.0642884
174	0x3f46ce3c	0.7765844
175	0xbdbca17d	-0.09210489
176	0x3ebac68f	0.36479613
177	0x3f119ff6	0.56884706
178	0x3e5ffd23	0.21873908
179	0x3e98357e	0.2972831
180	0xbe32519d	-0.17413945
181	0xbe1c1140	-0.15240955
182	0xbf577787	-0.8416676
183	0xbf83c22e	-1.0293634
184	0x3f2e2975	0.6803201
185	0x3f6c4234	0.9228852
186	0x3fc44872	1.5334609
187	0x3e89585c	0.26825225
188	0xbe192d34	-0.1495865
189	0x3c1ca5ed	0.009561044
190	0xbe05e16e	-0.13074276
191	0xbe917eb0	-0.28416967
192	0xbee75688	-0.45183206
193	0xbefdf064	-0.49597466
194	0x3f9e560d	1.2370011
195	0xbf625774	-0.8841469
196	0x3e9f728a	0.31142074
197	0xbf1b8a64	-0.6075804
198	0xbea2a472	-0.31766087
199	0x3fcf25cf	1.6183413
200	0x3fb18c72	1.3870986
201	0xbe73bc58	-0.23802316
202	0x3f7ff6cc	0.9998596
203	0x3e987e9e	0.297841
204	0xbef9a97f	-0.48762128
205	0xbeb1cf3e	-0.34728426
206	0xbee216a9	-0.44157913
207	0xbe4f0809	-0.20217909
208	0xbf7725fb	-0.9654233
209	0x3eddef40	0.43346596
210	0x3ea34ceb	0.3189462
211	0xbe932f4d	-0.28747025
212	0x3f1dd8c9	0.6165891
213	0x3edb022e	0.427751
214	0xbf8776bf	-1.0583113
215	0x3fc034af	1.5016078
216	0xc00c05f1	-2.1878626
217	0x3f5192fd	0.8186491
218	0xbfe4ae33	-1.7865661
219	0xbf09fb65	-0.5389922
220	0xbf211217	-0.6291823
221	0x3f7f591c	0.99745345
222	0xbe661955	-0.22470601
223	0x3d8b5335	0.0680298
224	0xbc7f0e46	-0.015567368
225	0xbd7d67b2	-0.06186647
226	0x400c136c	2.1886854
227	0xbf537140	-0.8259468
228	0xbea1e7d0	-0.3162217
229	0xbf8ba6fc	-1.0910335
230	0xbf25150e	-0.6448525
231	0x3f85b213	1.0444969
232	0xbeadf4db	-0.33975872
233	0x3ee99ee0	0.45629025
234	0xbf0ff363	-0.56230754
235	0x3edafd68	0.4277146
236	0xbd71dc5f	-0.059048053
237	0x3e469afa	0.19395056
238	0xbfac61df	-1.3467368
239	0xbd9afb55	-0.07567469
240	0xbf9e0a89	-1.2346965
241	0x40161220	2.3448563
242	0xbf8eee8b	-1.1166548
243	0xbd22f8a1	-0.039787892
244	0x3f847d8b	1.0350813
245	0xbc933617	-0.017970128
246	0xbd79cc9f	-0.060986158
247	0x3e8ed667	0.2789795
248	0xbd9f549f	-0.07779812
249	0x3e8da4c0	0.27664757
250	0x3f2e2031	0.6801787
251	0x3ef43cbc	0.47702587
252	0x3ece7196	0.40321034
253	0xbfd9bc9a	-1.7010682
254	0xbfaab83e	-1.3337476
255	0xbca4a889	-0.020099895

gru.weight_ih_l0 f4 [192, 32]
0	0xbe261279	-0.16217984
1	0xbd904f3b	-0.07046362
2	0x3ee5929e	0.44838423
3	0xbe2902d8	-0.16504991
4	0x3c10ed24	0.008845601
5	0xbd1c9f70	-0.03823799
6	0xbe059cc9	-0.1304809
7	0xbe21170c	-0.15731448
8	0xbdf08a8a	-0.11745174
9	0x3bccd861	0.0062513803
10	0xbde1f3e5	-0.11032847
11	0xbcaa484f	-0.020786433
12	0xbd21e3e9	-0.039523993
13	0xbe3f8ef7	-0.1870688
14	0x3d3b93fc	0.045795426
15	0x3e7bfdcd	0.24608536
16	0xbd34f47a	-0.044178464
17	0x3c9055cf	0.017619042
18	0x3deee5ab	0.116648994
19	0x3ede370e	0.43401378
20	0x3dbcc326	0.09216909
21	0xbdb47b03	-0.08812525
22	0xbe06ff55	-0.13183339
23	0xbe248170	-0.16065001
24	0xbd117283	-0.035509598
25	0xbd96b69a	-0.07359047
26	0x3d1f6d4b	0.03892259
27	0x3d971ad2	0.073781624
28	0xbd592913	-0.053017687
29	0xbe3b4c79	-0.18290891
30	0xbc77ca8a	-0.015123973
31	0xbe5f2976	-0.2179316
32	0xbd5392ca	-0.05165366
33	0xbcec257f	-0.028826473
34	0x3db72a3c	0.089436024
35	0xbdc0739e	-0.09397052
36	0xbdd250a8	-0.1026929
37	0x3ce223ea	0.027605016
38	0x3c07a755	0.008279641
39	0xbe334a71	-0.17508866
40	0x3e3da65f	0.18520497
41	0xbd022fbb	-0.0317838
42	0x3c3d3b21	0.011549742
43	0x3db0e47c	0.0863733
44	0x3e0667d0	0.13125539
45	0x3d897561	0.067118414
46	0xbd4c98b0	-0.0499503
47	0x3e888e33	0.2667099
48	0x3d84089a	0.06446953
49	0x3d5538f1	0.052056257
50	0x3df8c125	0.121462144
51	0xbe8cb284	-0.27479947
52	0x3e933df9	0.2875822
53	0xbca8f27a	-0.020623434
54	0xbd17a96c	-0.037026808
55	0xbeae854d	-0.34086075
56	0x3e038e1a	0.12847176
57	0xbbefe672	-0.0073211724
58	0x3e464e5a	0.19365826
59	0x3df59d71	0.1199292
60	0x3e1cb908	0.15304959
61	0xbe01dcda	-0.12681904
62	0x3e319d8c	0.17345256
63	0xbddecb28	-0.10878593
64	0xbc879c12	-0.016553912
65	0x3e591c2e	0.21202156
66	0xbe3274be	-0.17427346
67	0xbc1772a3	-0.00924364
68	0x3cebca9b	0.028783133
69	0xbd336b3b	-0.043803435
70	0x3b2182b7	0.0024644563
71	0xbd9a87b7	-0.07545417
72	0x3e4ce4ef	0.20009206
73	0x3e2dfc32	0.16990736
74	0xbe1c38ee	-0.15256092
75	0xbe6b984f	-0.2300732
76	0xbdaf92f2	-0.085729495
77	0xbd8b1c12	-0.06792463
78	0xbe923934	-0.28559268
79	0x3de7a6ba	0.113110974
80	0x3c34a402	0.011025431
81	0x3e00fbec	0.125961
82	0xbe618cdd	-0.22026391
83	0x3d2e6009	0.042572055
84	0x3d9dc609	0.07703788
85	0x3e500319	0.20313682
86	0xbe612f49	-0.21990694
87	0xbdbd3b14	-0.09239784
88	0xbd160bba	-0.036632277
89	0xbe0f05d1	-0.13967063
90	0x3b42d682	0.0029729907
91	0x3e0c3751	0.13692977
92	0x3e105bb0	0.14097476
93	0x3e0580d1	0.13037421
94	0x3ddadfd1	0.10687221
95	0x3d346333	0.044039916
96	0x3e25568a	0.16146293
97	0xbe6b7855	-0.22995122
98	0x3da5dd48	0.08098847
99	0xbe5982f0	-0.21241355
100	0xbc0c8fd4	-0.008579213
101	0x3c62fd0f	0.013854279
102	0xbe3a503d	-0.18194671
103	0xbe4c8f01	-0.19976427
104	0x3e5d795b	0.21628325
105	0xbe966877	-0.29376575
106	0x3e5b7d42	0.21434501
107	0x3dcb0478	0.09912962
108	0x3dde499e	0.10853885
109	0xbe0c68f3	-0.1371191
110	0xbdd87dc6	-0.105708644
111	0xbdd27a42	-0.10277225
112	0x3e434eed	0.19073077
113	0x3dc999cf	0.0984379
114	0x3e5569a1	0.20841075
115	0xbcc1f998	-0.023678586
116	0x3e404371	0.18775727
117	0xbda54ad4	-0.08070913
118	0xbde6991b	-0.11259671
119	0xbe92d1bd	-0.28675643
120	0x3e3ee02a	0.186402
121	0xbeebfb1a	-0.46090013
122	0x3e09b9e0	0.13449812
123	0x3c835a6e	0.016034331
124	0x3dfdd867	0.12394791
125	0x3d6e063c	0.058111414
126	0x3e364ee8	0.17803538
127	0x3d8fa446	0.070137545
128	0xbc9bce4a	-0.019019265
129	0xbe26b336	-0.16279301
130	0x3e5e6c02	0.21720889
131	0xbce5a87f	-0.028034447
132	0xbe495205	-0.19660194
133	0x3db9cacd	0.09071884
134	0xbe1d27c3	-0.15347199
135	0xbdfba34f	-0.12287008
136	0x3ddfca03	0.109272026
137	0x3d8b4a65	0.06801299
138	0x3c1b9db0	0.009498045
139	0xbd1b5683	-0.0379243
140	0x3bc1d4c6	0.005915257
141	0x3cd7a61e	0.026324328
142	0xbc6a8d95	-0.014315982
143	0x3e0b5a6a	0.13608709
144	0x3e131662	0.14364007
145	0x3e6e2a5b	0.23258345
146	0xbc3c0d25	-0.011477743
147	0x3dae9808	0.085250914
148	0xbc987194	-0.018608846
149	0x3d334cd6	0.04377445
150	0xbda80a9d	-0.08205149
151	0xbd0ebb84	-0.034846798
152	0xbdeb2c4b	-0.114830576
153	0xbd58bee9	-0.05291644
154	0x3cc33999	0.023831176
155	0x3df09b9e	0.117484316
156	0x3e5655cc	0.20931166
157	0xbddc9959	-0.10771436
158	0x3c7e6d66	0.015529012
159	0xbdd6f044	-0.10495046
160	0xbe6dce94	-0.23223335
161	0x3c3555c8	0.011067815
162	0x3d9dce17	0.07705324
163	0xbd21019c	-0.039308175
164	0xbded0dbe	-0.11574887
165	0xbde64148	-0.1124292
166	0x3d0da716	0.034583174
167	0xbdad0c53	-0.08449616
168	0x3ea167da	0.31524545
169	0xbe3be58a	-0.18349281
170	0x3df5599f	0.119799845
171	0x3dc3c3ce	0.09558831
172	0xbcaf4272	-0.021393988
173	0x3e0f5935	0.13998874
174	0x3de7cdff	0.113185875
175	0xbb2b0bd6	-0.0026099584
176	0x3dccc98e	0.09999381
177	0x3ddeffb6	0.10888617
178	0x3ce36126	0.027756285
179	0xbd1586bb	-0.036505442
180	0x3e4c1fec	0.19934052
181	0x3e2a417a	0.1662654
182	0xbe099bee	-0.13438389
183	0xbb957f44	-0.0045622904
184	0x3ccd6e21	0.025076928
185	0x3d5e32d5	0.054247696
186	0x3d95be31	0.07311667
187	0x3e0935cb	0.13399427
188	0x3e16e5de	0.14736125
189	0xbe84239d	-0.2580842
190	0x3d50e0b8	0.05099556
191	0xbe7e9c44	-0.24864298
192	0x3cb7ba7e	0.022427794
193	0xbe598959	-0.212438
194	0x3d8fc875	0.07020656
195	0x3e5e9578	0.21736705
196	0x3d764afc	0.060130104
197	0xbd1cd7da	-0.03829179
198	0xbe0f6a58	-0.1400541
199	0x3d6b1731	0.057395164
200	0xbb3b3501	-0.0028565528
201	0xbe272a70	-0.16324782
202	0xbe088956	-0.1333364
203	0xbc9d3cbb	-0.019193998
204	0x3d3ab8d5	0.045586426
205	0xbcd50b0f	-0.02600625
206	0xbdb6a99e	-0.08919071
207	0xbdfd1385	-0.12357239
208	0x3d7ae055	0.061249096
209	0x3dc2a1f6	0.09503548
210	0x3e1f2c67	0.15544282
211	0x3d179ae9	0.03701297
212	0xbcbe65ed	-0.023241961
213	0x3dfa8803	0.122329734
214	0xbdfd9e5a	-0.12383719
215	0xbe3f57a8	-0.18685782
216	0xbd54c5bb	-0.051946383
217	0x3e01e6d3	0.12685709
218	0x3d485dac	0.048917457
219	0xbe587b3c	-0.2114076
220	0x3dc026b2	0.093823805
221	0xbea2d0f5	-0.31800047
222	0xbd2cfbaf	-0.04223221
223	0xbd2cf622	-0.042226918
224	0xbd3699db	-0.04458032
225	0x3d93f1cc	0.072238535
226	0x3dc82d83	0.09774306
227	0x3eb084e9	0.34476402
228	0xbca89ec4	-0.020583518
229	0xbde972f8	-0.11398882
230	0xbe05336d	-0.13007899
231	0xbcf32830	-0.029682249
232	0x3d78dccc	0.060757443
233	0x3de07287	0.10959344
234	0x3e3e19d5	0.18564542
235	0x3df8cbb6	0.1214823
236	0x3e2a39f4	0.1662367
237	0xbe13270e	-0.14370367
238	0xbdce0394	-0.10059276
239	0x3e2ef7fc	0.17086786
240	0xbbeb9bac	-0.0071901884
241	0xbdd164d7	-0.10224312
242	0xbd190f97	-0.037368383
243	0x3c2ac87f	0.010423779
244	0x3d70da1b	0.05880175
245	0x3cf1178f	0.029430179
246	0x3c2d80da	0.010589803
247	0x3e0d8e09	0.13823713
248	0x39b797ef	0.0003501768
249	0x3d924f23	0.071440004
250	0xbdaa4004	-0.08312991
251	0x3dddc6bb	0.108289205
252	0xbe10f624	-0.14156395
253	0xbd021a04	-0.03176309
254	0x3d8da882	0.06916906
255	0xbd53051d	-0.05151855

gru.weight_hh_l0 f4 [192, 64]
0	0x3d826b63	0.06368139
1	0x3d7c7821	0.061638
2	0x3d0cfde4	0.034421816
3	0x3bdc0f55	0.006715695
4	0x3e088a40	0.13333988
5	0x3de1109e	0.109894976
6	0xbea6db27	-0.32589075
7	0x3d1e63d0	0.038669407
8	0xbdb12617	-0.08649843
9	0xbe24b5e4	-0.16085011
10	0x3dabe300	0.08392906
11	0x3e516499	0.20448531
12	0xbdba441e	-0.090950236
13	0x3cb925ac	0.022600971
14	0xbd082315	-0.03323658
15	0xbdded001	-0.10879517
16	0xbe5b3779	-0.2140788
17	0x3de268d1	0.110551484
18	0xbde462ab	-0.11151632
19	0x3d9b2fb2	0.075774565
20	0x3dfcbfc9	0.123412676
21	0x3c895d9d	0.016768271
22	0xbb27d350	-0.002560813
23	0x3e1a1600	0.15047455
24	0xb92643fb	-0.00015856318
25	0xbdca308a	-0.09872539
26	0xbd8a2b66	-0.06746559
27	0xbdbb152b	-0.09134897
28	0x3d7f8235	0.062380034
29	0x3d88b0f9	0.0667438
30	0xbcfa7a4a	-0.03057589
31	0x3e623896	0.22091898
32	0x3d374728	0.044745594
33	0x3cdd0f03	0.026984697
34	0x3e5553df	0.20832776
35	0xbd04de05	-0.032438297
36	0xbea03c3a	-0.3129595
37	0xbdec4810	-0.11537182
38	0x3d13a827	0.036049034
39	0x3dc3a597	0.09553068
40	0xbb4bad4b	-0.0031078632
41	0x3deb7982	0.11497785
42	0xbe6cfa2d	-0.2314231
43	0x3df68cf7	0.12038606
44	0x3cc71fba	0.02430712
45	0xbd90d109	-0.0707112
46	0x3d7bac2c	0.061443493
47	0x3e05fc16	0.13084444
48	0xbe84bae1	-0.25923827
49	0xbd817251	-0.06320632
50	0xbd89ca50	-0.06728041
51	0xbd89c8dc	-0.06727764
52	0xbdf1a213	-0.11798491
53	0xbda276dc	-0.07932827
54	0x3dbf46b4	0.093396574
55	0xbcc6fe77	-0.02429126
56	0xbd768e9b	-0.060194593
57	0x3ce5bd63	0.028044408
58	0xbdfb5d31	-0.12273634
59	0x3d550f3e	0.05201649
60	0x3dd7a85d	0.105301596
61	0xbe2dfdf1	-0.16991402
62	0x3d61dd30	0.05514258
63	0x3e7bfb41	0.24607565
64	0xbe994528	-0.29935575
65	0x3e2aade8	0.16667902
66	0x3d14fa8e	0.03637176
67	0xbd55102b	-0.052017372
68	0xbdb80ed1	-0.08987201
69	0x3d125ba2	0.03573192
70	0x3e9c7614	0.30558836
71	0xbe2fa8e3	-0.17154269
72	0x3d498a16	0.049203955
73	0x3de251c6	0.11050753
74	0xbe13964a	-0.144128
75	0xbcbe21a4	-0.0232094
76	0xbdf4b886	-0.119492576
77	0xbd80d855	-0.06291262
78	0xbd4ca6a3	-0.049963605
79	0x3e1b95ae	0.15193817
80	0xbe03c845	-0.12869366
81	0xbe3e3aa8	-0.18577063
82	0x3c12d83f	0.00896269
83	0x3d085269	0.033281717
84	0xbdeb70e1	-0.11496139
85	0xbdc4027b	-0.095707856
86	0xbdf3f3c6	-0.119117305
87	0xbe264542	-0.16237357
88	0x3e0458e5	0.12924536
89	0xbdb2bc6c	-0.08727345
90	0x3d5d320a	0.0540028
91	0x3ddde4bc	0.10834643
92	0x3d69f3e3	0.057117354
93	0x3dfd4468	0.12366563
94	0x3e8f4cb5	0.2798821
95	0xbe09afc3	-0.13445954
96	0xbe43db4c	-0.19126624
97	0xbcdcc5e1	-0.026949825
98	0xbee24aef	-0.44197795
99	0xbdd2edb7	-0.10299247
100	0x3df5ad66	0.11995964
101	0xbe027128	-0.12738478
102	0x3e519489	0.20466818
103	0xbce615ed	-0.028086627
104	0xbcb1c513	-0.021700418
105	0xbd393b52	-0.045222588
106	0xbaa178a4	-0.0012319279
107	0xbe031e24	-0.12804466
108	0x3dc19077	0.094513826
109	0x3d5aad4a	0.053387918
110	0x3e2b3f21	0.167233
111	0x3ec6ad1a	0.3880394
112	0x3e0e2f64	0.13885266
113	0xbdf1ce96	-0.11806981
114	0xbea04f36	-0.31310433
115	0x3dbd93af	0.09256684
116	0xbc56c435	-0.013108303
117	0xbd5fdd34	-0.054654315
118	0xbc812b0b	-0.015767595
119	0x3c2e7ce1	0.010649891
120	0xbd8c6cf1	-0.068567164
121	0xbd6deeb8	-0.058088988
122	0x3e20da53	0.15708284
123	0x3d757ce0	0.059933543
124	0xbc4a0eaa	-0.012332598
125	0xbd9f7d0a	-0.07787521
126	0xbe0495e7	-0.12947808
127	0xbe195049	-0.14972033
128	0xbe1a84c8	-0.15089715
129	0xbe5130eb	-0.20428817
130	0x3dd129cf	0.102130525
131	0xbe67be40	-0.22631168
132	0x3cb79fb9	0.022415029
133	0x3d996dd5	0.07491652
134	0x3dee93ef	0.1164931
135	0x3d17fa9a	0.037104227
136	0x3e163347	0.14667998
137	0xbcdec9dc	-0.027195863
138	0x3d5fb044	0.05461146
139	0xbe024e3f	-0.12725161
140	0xbe855f24	-0.2604915
141	0x3d923e4a	0.07140787
142	0xbe3bb1bc	-0.18329519
143	0x3e5c7d74	0.21532232
144	0xbe1f6d3d	-0.15569015
145	0x3d39ad0e	0.045331053
146	0xbe3d5a54	-0.18491489
147	0x3e0477b9	0.12936296
148	0x3d3c7d1f	0.046017762
149	0xbd478f09	-0.048720393
150	0xbdcba6e1	-0.09943939
151	0xbdfd4396	-0.123664066
152	0x3dabf15e	0.083956465
153	0x3e8125af	0.25224063
154	0xbdc41178	-0.095736444
155	0xbd9175fe	-0.07102583
156	0x3e4cd21d	0.20002027
157	0x3cd5dd05	0.026106367
158	0x3df04fd5	0.11733977
159	0xbc6c0759	-0.014406049
160	0x3e0acbd1	0.13554312
161	0x3d3ae66c	0.045629904
162	0xbe7010e6	-0.23443946
163	0xbdf8b561	-0.1214397
164	0x3e2786f2	0.16360071
165	0x3d83acb1	0.06429423
166	0x3e774483	0.24147229
167	0x3e413168	0.18866503
168	0x3cf37c60	0.029722393
169	0xbe7377b5	-0.23776133
170	0x3e69f5d2	0.2284768
171	0x3d93cedf	0.07217192
172	0xbe5c9e8b	-0.21544854
173	0x3e1d7b3f	0.15379046
174	0x3d220768	0.039557844
175	0xbd909532	-0.07059707
176	0xbe0898ae	-0.13339493
177	0x3d7a6099	0.06112728
178	0x3c566aea	0.013087014
179	0xbe7c5a8d	-0.24643917
180	0x3d8d51f7	0.06900399
181	0x3d28a4a7	0.04117265
182	0x3e49b713	0.19698744
183	0x3e249af7	0.1607474
184	0x3e205ce3	0.15660433
185	0xba0b46ab	-0.00053129595
186	0x3e8e94c6	0.2784788
187	0x3e2459e9	0.16049923
188	0x3e084774	0.13308507
189	0x3e2b0e56	0.16704687
190	0xbe4bb3af	-0.19892763
191	0xbdb5a77e	-0.08869837
192	0x3dad7148	0.08468872
193	0x3d6ec082	0.05828906
194	0x3d73a1bb	0.05948041
195	0x3d85d978	0.065356195
196	0xbd3c05ba	-0.0459039
197	0xbe117b69	-0.14207233
198	0x3e275b0b	0.16343324
199	0xbe9f2a9f	-0.31087205
200	0x3da17512	0.078836575
201	0x3dbf3601	0.09336472
202	0xbe7bb053	-0.24578981
203	0x3e92db5e	0.2868299
204	0x3e29a675	0.16567405
205	0x3e53029d	0.20606466
206	0xbc97e7e7	-0.018543197
207	0x3e008b03	0.12553029
208	0x3d50d90c	0.050988242
209	0xbe0f4133	-0.13989715
210	0xbdcfc39c	-0.101447314
211	0x3db30912	0.087419644
212	0x3e13e8bc	0.1444425
213	0xbc9db460	-0.019251049
214	0x3db3d40a	0.087806776
215	0x3e3a8a5e	0.18216845
216	0x3d74fba8	0.05981031
217	0xbdfd4ed0	-0.12368548
218	0xbcdc9947	-0.026928557
219	0xbda3f6c4	-0.08006051
220	0x3c8b1dc1	0.016981961
221	0x3ceecec2	0.029151324
222	0x3d25e4e8	0.040501505
223	0xbc253823	-0.010084185
224	0x3d93c259	0.07214803
225	0xbd87f0f3	-0.06637754
226	0x3c308768	0.010774471
227	0xbd97650d	-0.07392321
228	0xbe4f3b4a	-0.2023746
229	0xbe43397a	-0.19064894
230	0x3d7136d6	0.058890186
231	0xbe2d648d	-0.16932888
232	0x3c4ede22	0.012626203
233	0xbd87969e	-0.06620525
234	0xbd3dbc30	-0.046322048
235	0xbe619f1b	-0.2203335
236	0xbad85f55	-0.0016507903
237	0x3d9eb941	0.07750178
238	0xbc2b9a87	-0.010473854
239	0x3e63e25b	0.22254317
240	0xbe294cdc	-0.16533226
241	0x3e142ae3	0.14469485
242	0x3d10977d	0.03530072
243	0xbd99a1d1	-0.07501567
244	0xbd5cc4fb	-0.053898793
245	0xbca4fc94	-0.02013997
246	0x3ddced9d	0.10787509
247	0xbe33b13b	-0.17548077
248	0xbe93f79a	-0.28899843
249	0x3c38ca87	0.011278755
250	0xbe005580	-0.12532616
251	0x3e3aaeb3	0.18230705
252	0x3dbf845d	0.09351418
253	0xbd29b733	-0.041434478
254	0xbe5e392e	-0.217015
255	0x3e406376	0.18787941

gru.bias_ih_l0 f4 [192]
0	0x3a0dc559	0.000540813
1	0xbe6ad246	-0.22931775
2	0xbd40f18a	-0.04710535
3	0xbdd1c130	-0.10241926
4	0xbe0d321b	-0.13788645
5	0x3de8b9bc	0.11363551
6	0x3d6dbaa3	0.05803932
7	0xbe40034d	-0.18751259
8	0xbe297f18	-0.16552389
9	0xbb2cd36f	-0.0026371141
10	0xbdc55d61	-0.09636951
11	0xbc42ea04	-0.011896614
12	0xbe463a67	-0.19358216
13	0x3e01f322	0.12690404
14	0xbcf0cb2c	-0.029393755
15	0x3c939fe9	0.018020587
16	0x3e0fc63b	0.14040463
17	0x3d13566a	0.035971083
18	0xbdd3680f	-0.10322582
19	0x3d31c01b	0.043396097
20	0xbdbbdd23	-0.09173038
21	0xbe089f4e	-0.1334202
22	0x3c656766	0.014001703
23	0xbdcb837a	-0.099371865
24	0x3db01a10	0.08598721
25	0xbe1f3022	-0.15545705
26	0xbd7d2ed6	-0.061812244
27	0x3e220533	0.15822296
28	0xbc339601	-0.010961057
29	0xbd062c9f	-0.032757398
30	0x3e5e06e6	0.21682319
31	0x3db14f82	0.08657743
32	0xbbb2c525	-0.0054556304
33	0xbdcee2ea	-0.10101874
34	0x3c5a77b5	0.013334204
35	0x3e52a45c	0.2057051
36	0x3eb0497c	0.34431064
37	0xbd801582	-0.06254102
38	0xbd1f7303	-0.038928043
39	0x3e58f67d	0.21187778
40	0xba9a4ef1	-0.0011772794
41	0xbc998d73	-0.018744206
42	0xbdee48e4	-0.116349965
43	0xbe70881c	-0.23489422
44	0x3d629067	0.055313494
45	0xbe4394db	-0.19099753
46	0xbdafc768	-0.085829556
47	0x3d833913	0.064073704
48	0x3dd09e87	0.10186487
49	0xbd65c142	-0.056092508
50	0xbd9781db	-0.07397815
51	0xbbe56804	-0.007000925
52	0x3de72092	0.11285509
53	0xbd69bf14	-0.057066992
54	0x3cfb5d1d	0.030684048
55	0x3d22cf33	0.03974838
56	0x3cb3c99c	0.02194672
57	0xbd9a5e5d	-0.075375296
58	0x3e0e4bf8	0.13896167
59	0xbcc7eccb	-0.024404904
60	0x3da2da69	0.07951815
61	0xbe296c6a	-0.16545263
62	0xbdf2988e	-0.11845504
63	0x3cfebb87	0.03109528
64	0x3e220dcf	0.1582558
65	0xbddd52a0	-0.10806775
66	0x3db05405	0.086097755
67	0x3d98b2c7	0.07455974
68	0xbd0e5fd4	-0.034759358
69	0x3e82b414	0.25528014
70	0x3e707026	0.23480281
71	0x3e6ab63f	0.22921084
72	0xbcb791bf	-0.022408364
73	0xbcb663f9	-0.022264468
74	0x3dbc3abd	0.09190891
75	0xbd975e6d	-0.07391057
76	0x3f1383db	0.5762307
77	0x3d2380e9	0.03991786
78	0xbe014011	-0.12622096
79	0x3e1bb2ec	0.15204972
80	0x3eb85c1a	0.36007768
81	0x3d091d7f	0.033475395
82	0xbdcd02ab	-0.100102745
83	0x3d189231	0.037248794
84	0x3e60ad22	0.21941045
85	0xbd753ad3	-0.059870552
86	0x3d5d09ec	0.05396454
87	0xbe3277d6	-0.17428526
88	0x3d0e4f34	0.034743503
89	0xbcb1b518	-0.021692798
90	0x3e34df61	0.17663337
91	0x3d802615	0.062572636
92	0x3e4ef67f	0.20211218
93	0x3d29f425	0.0414926
94	0xbe34907e	-0.17633244
95	0x3dbee600	0.09321213
96	0x3f12ec3b	0.5739171
97	0x3e09de52	0.13463715
98	0x3d69a48a	0.057041682
99	0x3d41e289	0.04733518
100	0xbd4aba54	-0.049494103
101	0x3e251400	0.1612091
102	0x3c9b326a	0.018944938
103	0x3c2c842c	0.010529559
104	0xbc4de05f	-0.012565701
105	0xbdbf2db0	-0.09334886
106	0x3dc9df8f	0.098570935
107	0xbdc914c4	-0.09818414
108	0x3e97d2c8	0.29653
109	0x3c5fb149	0.013653108
110	0x3e1e4653	0.15456514
111	0x3df32eee	0.118741855
112	0xbde43ca3	-0.11144378
113	0xbe0bb3da	-0.13642827
114	0x3e2640ae	0.16235611
115	0xbb61c887	-0.00344518
116	0x3d15316e	0.036424093
117	0xbccb916b	-0.024849614
118	0x3bd03f9b	0.0063552386
119	0xba50c864	-0.0007964431
120	0xbe4d807a	-0.20068541
121	0xbe0e84f0	-0.13917899
122	0x3d24dfcb	0.040252488
123	0x3d8e7954	0.06956735
124	0x3db292da	0.08719416
125	0x3e0de9c4	0.13858706
126	0x3d8bd00c	0.06826791
127	0xbb01b042	-0.0019788896
128	0x3a10635a	0.00055079686
129	0x3c5ac002	0.013351442
130	0xbd09dbbf	-0.03365683
131	0xbdbe8d71	-0.093043216
132	0x3d8da3f6	0.06916039
133	0x3db1a1c1	0.0867343
134	0x3c295c64	0.010336969
135	0xbd2ded33	-0.04246254
136	0xbd716b15	-0.058940012
137	0xbd451655	-0.048117
138	0x3d0925bc	0.033483252
139	0xbce03ee2	-0.027373735
140	0xbbe03341	-0.0068420474
141	0xbe3b6e8e	-0.18303892
142	0x3da865a0	0.082225084
143	0x3de9cdb8	0.11416191
144	0x3d812e56	0.06307666
145	0xbc9df99a	-0.019284058
146	0xbe0fabb5	-0.14030345
147	0x3d0813ae	0.033221893
148	0x3cf22f1b	0.029563477
149	0x3e293e0d	0.16527577
150	0xbd800ee4	-0.0625284
151	0xbcd446f6	-0.025912743
152	0xbe0d8b00	-0.13822556
153	0xbcf1fec2	-0.029540423
154	0x3d7bc105	0.061463375
155	0xbd8cebd2	-0.06880917
156	0x3aac3863	0.0013139363
157	0x3d55679e	0.05210077
158	0xbc119355	-0.008885224
159	0xbe07e96c	-0.13272637
160	0x3d076e24	0.033064023
161	0x3e17876f	0.14797758
162	0x3c110edc	0.00885364
163	0xbd880b93	-0.066428326
164	0xbbb12544	-0.0054060537
165	0xbc3b8946	-0.011446303
166	0xbd602bf9	-0.054729436
167	0x3dc29cc7	0.09502559
168	0xbd4a11f2	-0.04933352
169	0xbd714271	-0.058901254
170	0x3d2e2046	0.042511247
171	0xbd2419b2	-0.040063567
172	0xbd2595a3	-0.040425908
173	0xbe2504c7	-0.16115104
174	0x3cfcfd53	0.030882513
175	0x3c9fdbb5	0.019513944
176	0xbd33b326	-0.04387202
177	0x3dddc0dc	0.10827801
178	0xbdb3b5e1	-0.08774925
179	0x3e1a4dc3	0.15068726
180	0x3d59a86b	0.05313913
181	0xbdaba5cf	-0.08381235
182	0xba445792	-0.00074898556
183	0x3cfed198	0.031105801
184	0xbe093cba	-0.13402072
185	0xbdeb6a97	-0.1149494
186	0x3d1c749f	0.038197156
187	0xbe26cd28	-0.16289198
188	0x3d370e83	0.044691574
189	0x3de3e615	0.11127869
190	0x3d303f44	0.043029085
191	0xbd9cfac1	-0.07665015

gru.bias_hh_l0 f4 [192]
0	0xbcff3695	-0.031153956
1	0xbd422f6d	-0.04740851
2	0xbe1607ad	-0.14651366
3	0xbe17b789	-0.14816107
4	0xbcbe1a8e	-0.023206022
5	0xbd49884c	-0.04920225
6	0x3e364d23	0.17802863
7	0xbdf638a0	-0.12022519
8	0xbe0fc535	-0.14040072
9	0xbe2573d0	-0.1615746
10	0xbd7dfe0b	-0.062009852
11	0xbdaf810d	-0.08569536
12	0xbd14d37a	-0.036334492
13	0x38e0c41e	0.00010717682
14	0xbe5ad131	-0.21368863
15	0x3d649ae1	0.055811767
16	0x3e074ef4	0.13213712
17	0x3e10fbb0	0.14158511
18	0xbe2a7a9c	-0.16648334
19	0x3d94e7e3	0.072707914
20	0xbd930d3b	-0.07180258
21	0x3cd94961	0.026524248
22	0xbd7794a8	-0.060444504
23	0xbc67692b	-0.014124195
24	0x3d2ab03b	0.041671973
25	0xbe1ae5ac	-0.15126675
26	0x3cc21d4b	0.023695609
27	0x3daa446a	0.0831383
28	0x3c61b122	0.013775142
29	0xbe5e903a	-0.21734706
30	0x3e2b77cd	0.16744919
31	0x3d782875	0.060585458
32	0x3e4604ef	0.1933782
33	0x3bb808f4	0.0056163017
34	0x3d18d659	0.037313793
35	0x3deb6729	0.114942856
36	0x3e3a2974	0.18179876
37	0xbc749074	-0.014927018
38	0x3c35c433	0.011094141
39	0x3e481547	0.19539367
40	0xbd468d76	-0.04847475
41	0xbdd5fc19	-0.104484744
42	0xbe0e2b3c	-0.1388368
43	0xbd0f3382	-0.03496123
44	0xbd940943	-0.07228329
45	0xbdcb2023	-0.09918239
46	0xbc6a3e3f	-0.014297067
47	0x3da31a11	0.07963956
48	0x3e30f552	0.17281082
49	0xbdfaf15e	-0.122530684
50	0xbd85876d	-0.06519971
51	0xbe16a5b8	-0.14711654
52	0x3dcc91da	0.099887565
53	0xbd5afed9	-0.053465698
54	0xbd14ef20	-0.03636086
55	0xbd57924c	-0.052629754
56	0xbd7ebbfe	-0.062191002
57	0xbe4d754d	-0.20064278
58	0x3e45566e	0.19271252
59	0x3dbda196	0.09259336
60	0x3d7b0fe0	0.061294436
61	0xbc146745	-0.0090578245
62	0xbdcaa8e7	-0.09895497
63	0xbdc71dd1	-0.09722484
64	0x3e036736	0.1283234
65	0x3d258c78	0.040417165
66	0x3dd1f51b	0.10251828
67	0x3e478905	0.19485863
68	0xbcbd4ac3	-0.023106938
69	0x3e60c3e4	0.21949726
70	0x3e53624f	0.2064297
71	0x3e1cb9a5	0.15305193
72	0xbd305030	-0.043045223
73	0x3dc83637	0.09775966
74	0x3de9e95e	0.114214644
75	0xbdd3644e	-0.10321866
76	0x3f14eafa	0.58171046
77	0x3c93065a	0.017947365
78	0xbb3d7819	-0.0028910695
79	0x3e0f4a2f	0.13993143
80	0x3ecc85d6	0.3994586
81	0xbcab942b	-0.020944675
82	0x3c6ddbaa	0.014517704
83	0x3e5ab661	0.21358635
84	0x3dfda09c	0.123841494
85	0x3bed7bbb	0.007247416
86	0x3dc5c7cd	0.096572496
87	0xbe02fb83	-0.12791257
88	0xbcd6bb1a	-0.026212264
89	0x3d9d53dc	0.076820105
90	0x3db551c8	0.08853489
91	0x3d116035	0.03549214
92	0x3d8bca5a	0.06825705
93	0x3e17c2ca	0.148204
94	0x3c7ad860	0.015310377
95	0x3cd5481a	0.026035357
96	0x3f1c396c	0.6102512
97	0x3d8d041b	0.06885549
98	0x3b96348e	0.0045839017
99	0x3d9093a9	0.07059414
100	0xbdeba7cc	-0.11506614
101	0x3e10cc8d	0.1414053
102	0x3e1c5f46	0.15270719
103	0xbe09b5ba	-0.1344823
104	0xbd9d89ae	-0.07692276
105	0xbdd0c39e	-0.10193561
106	0x3c9d582a	0.019207079
107	0xbbf7301b	-0.0075435764
108	0x3e9922aa	0.2990926
109	0xbe0a77d1	-0.13522269
110	0x3e20aac4	0.15690142
111	0x3e7b6dd2	0.24553612
112	0x3cc3c798	0.023898885
113	0xbda7e774	-0.08198443
114	0x3e8180ae	0.25293487
115	0x3d5e16ef	0.05422109
116	0x3d12b4e4	0.035817042
117	0xbbe183c5	-0.006882163
118	0x3d9dd49d	0.077065684
119	0x3b21fa09	0.0024715683
120	0xbd45844f	-0.048221882
121	0xbe0a02de	-0.13477656
122	0x3da56928	0.080766976
123	0x3cd6af47	0.026206626
124	0x3cb15cfb	0.021650782
125	0xbd0253de	-0.031818263
126	0x3d82ad86	0.06380753
127	0x3db1427e	0.086552605
128	0x3d811fbf	0.06304883
129	0x3dbf0a3e	0.093281254
130	0x3d0635d9	0.032766197
131	0xbe13455b	-0.14381926
132	0x3da390d7	0.079866104
133	0x3da3f144	0.08005002
134	0x3ce55b6a	0.027997691
135	0x3d82d57b	0.063883744
136	0xbdb8db4a	-0.09026201
137	0xbdcc35f1	-0.09971226
138	0x3d8bde88	0.06829554
139	0xbd052b70	-0.03251213
140	0xbdefbea6	-0.11706285
141	0xbe1a90c5	-0.15094288
142	0x3db8675d	0.0900409
143	0xbdab9487	-0.08377939
144	0x3d059e2d	0.03262155
145	0x3e0df169	0.13861622
146	0xbdbb7af2	-0.09154309
147	0x3deab71e	0.11460708
148	0x3e72cae0	0.23710203
149	0x3dc60e1f	0.09670662
150	0xbdf659a5	-0.12028817
151	0x3d6ac798	0.057319254
152	0xbdac8061	-0.08422924
153	0xbe28c56f	-0.16481565
154	0x3e1405e7	0.14455377
155	0xbdd67159	-0.10470838
156	0x3c8a31df	0.016869484
157	0xbce6028f	-0.028077392
158	0xbcf6eccc	-0.03014221
159	0x3b4ee81d	0.0031571456
160	0xbdc51ddb	-0.09624835
161	0xbdcc3d48	-0.09972626
162	0x3d540102	0.051758774
163	0x3dc39ca4	0.09551361
164	0x3d96ad34	0.073572546
165	0xbdcc2c4f	-0.09969389
166	0xbc1c7105	-0.00954843
167	0xbce9994c	-0.02851548
168	0xbdb9673a	-0.09052892
169	0x3d94b048	0.072601855
170	0xbbda3df6	-0.0066602184
171	0xbe031da2	-0.12804273
172	0xbcc3085f	-0.023807703
173	0xbc84769c	-0.016169839
174	0x3d9c484a	0.076309755
175	0xbd14f7b3	-0.036369037
176	0xbc9f84c5	-0.01947249
177	0xbc2fbd2a	-0.010726253
178	0xbd599c81	-0.05312777
179	0x3d2346d4	0.03986247
180	0xb9c1c379	-0.00036957467
181	0xbe31dcb9	-0.17369355
182	0x3d5f2a8a	0.054483928
183	0xbd52c261	-0.051454905
184	0xbdb4ee29	-0.08834488
185	0xbde22faa	-0.110442474
186	0xbda58f35	-0.08083955
187	0xbe2ff699	-0.17183913
188	0x3e2b82bd	0.16749091
189	0x3d00404d	0.031311322
190	0x3d5617f1	0.052268926
191	0x3cb54b61	0.02213067

fc.weight f4 [64, 65]
0	0x3e0a887e	0.1352863
1	0x3dc6301a	0.096771434
2	0xbdcbee7c	-0.09957597
3	0x3d617c57	0.05505022
4	0x3d80bb99	0.062857814
5	0x3d7b1c94	0.06130655
6	0x3c7a6699	0.01528325
7	0xbbf4a126	-0.0074654995
8	0xbdf57ead	-0.11987052
9	0xbc5eb909	-0.0135939205
10	0xbd67fa9b	-0.05663548
11	0xbc203f8e	-0.009780778
12	0xbe7ab929	-0.24484695
13	0xbdf718f3	-0.120653056
14	0xbd694e76	-0.05695959
15	0xbda8cb30	-0.0824188
16	0xbebd2acb	-0.3694671
17	0xbd0091e9	-0.03138915
18	0x3c6ad3a2	0.014332684
19	0xbdce4600	-0.10071945
20	0xbe0df666	-0.13863525
21	0x3e25b28f	0.16181396
22	0xbe69b9fc	-0.22824854
23	0xbdea39cb	-0.114368044
24	0x3ca1ab6e	0.019735064
25	0xbde1d52f	-0.1102699
26	0x3db9dff3	0.09075918
27	0xbac3648c	-0.0014907285
28	0xbd64986c	-0.055809423
29	0xbd110a8e	-0.035410456
30	0x3df76fa5	0.120818414
31	0xbdb11485	-0.08646492
32	0xbedc2f03	-0.43004617
33	0x3e243698	0.16036451
34	0xbe0a31c2	-0.13495544
35	0xbc011fb3	-0.007881093
36	0x3dc07beb	0.093986355
37	0x3d67cc46	0.056591295
38	0x3c852681	0.016253712
39	0x3d8f42c0	0.069951534
40	0x3d1aadc6	0.03776338
41	0xbe586705	-0.21133049
42	0x3d72fd82	0.059323795
43	0x3d595f07	0.05306914
44	0x3e048905	0.12942894
45	0x3ab8d01c	0.0014100107
46	0xbdbdcb08	-0.09267241
47	0xbe0b7147	-0.1361743
48	0x3db56c9f	0.088586085
49	0xbd8cbbcd	-0.06871758
50	0x3d89a70c	0.06721315
51	0x3dcca4a3	0.099923395
52	0x3dfcdf0e	0.12347232
53	0xbdf7dcb3	-0.12102642
54	0x3d01ffeb	0.031738203
55	0x3dd4c2c4	0.10388711
56	0x3e1b273d	0.15151687
57	0x3c98a56d	0.018633569
58	0x3dbafa6a	0.09129794
59	0xbe180558	-0.14845788
60	0xbbf662b0	-0.0075190887
61	0x3d8a458a	0.06751545
62	0x3d91f5e6	0.071269795
63	0x3d0eabe2	0.03483189
64	0xbe7ad3ee	-0.24494907
65	0xbc84af82	-0.01619697
66	0xbac51971	-0.0015037489
67	0xbdae880f	-0.08522045
68	0x3a112bc2	0.00055378315
69	0xbdd6eeb7	-0.1049475
70	0xbd3e3ec1	-0.046446566
71	0x3d68fbc3	0.056880724
72	0xbd003e92	-0.03130967
73	0x3bc487c7	0.0059976312
74	0xbdcd25be	-0.100169644
75	0x3d57e619	0.052709673
76	0x3dc0e1d0	0.0941807
77	0x3cbd985e	0.023143943
78	0x3d9509ee	0.072772846
79	0xbbd02b3c	-0.00635281
80	0xbcb9be45	-0.022673735
81	0xbc090687	-0.008363373
82	0xbdd76c5d	-0.105187155
83	0xbce36239	-0.027756797
84	0x3dba51e0	0.09097648
85	0x3d2689cd	0.04065876
86	0xbdd094f7	-0.10184663
87	0xbd90a36b	-0.070624195
88	0x3d9adc27	0.07561522
89	0x3d8ebf11	0.06970037
90	0x3df6d301	0.120519646
91	0x3d5af749	0.053458486
92	0x3c6156bb	0.013753588
93	0x3e1993f3	0.14997844
94	0x3da734a5	0.08164338
95	0x3df06557	0.11738079
96	0x3cfa109d	0.0305255
97	0xbdcef6a7	-0.10105639
98	0x3d505342	0.05086065
99	0xbac7e4c5	-0.0015250674
100	0x3d27aead	0.04093807
101	0xbc6d8819	-0.01449778
102	0xbd96d36b	-0.073645435
103	0xbe0b346b	-0.13594215
104	0x3d128619	0.035772417
105	0xbd95e3b9	-0.07318825
106	0xbd0874af	-0.033314403
107	0x3dd5d30e	0.10440646
108	0x3d86e779	0.06587119
109	0xbc8eb339	-0.017419444
110	0x3de7579a	0.112960055
111	0xbd16e182	-0.036836155
112	0x3de751da	0.11294909
113	0xbd702516	-0.058629118
114	0x3d8b21d4	0.067935616
115	0x3cc393e9	0.02387424
116	0x3cea7ac4	0.028622992
117	0xbdd4d435	-0.10392038
118	0x3d31ca15	0.04340561
119	0x3d726077	0.059174027
120	0x3db43263	0.08798673
121	0xbd7fdbfc	-0.062465653
122	0x3d47f6f4	0.048819497
123	0xbd33c3f6	-0.043888055
124	0xbd312681	-0.04324961
125	0xbcb0fb8a	-0.021604318
126	0xbd88cfc2	-0.06680252
127	0xbd9cd99a	-0.07658692
128	0xbe0c2a89	-0.13688101
129	0xbd99c771	-0.075087436
130	0x3e7bebed	0.24601717
131	0x3d8e2481	0.06940556
132	0xbd0a3d76	-0.03375002
133	0x3b04cdaa	0.0020264187
134	0xbd1c61cf	-0.038179215
135	0x3deafa2b	0.11473497
136	0xbc23f826	-0.010007894
137	0x3e6133f8	0.21992481
138	0xbda59c59	-0.080864616
139	0xbdba7924	-0.09105137
140	0x3daf838b	0.08570012
141	0x3d1391ad	0.0360276
142	0xbd73aca5	-0.05949082
143	0xbdf11e61	-0.117733724
144	0x3db028d8	0.0860154
145	0xbe5c4a1c	-0.21512645
146	0xbe5c5131	-0.21515347
147	0xbb947028	-0.0045299716
148	0xbd439d7f	-0.04775762
149	0x3ce1da8e	0.027570035
150	0xbe045bc1	-0.12925626
151	0xbccc8ba8	-0.024968937
152	0xbde61a25	-0.112354554
153	0xbc186073	-0.009300339
154	0xbddbedad	-0.107386924
155	0xbca3c2aa	-0.019990284
156	0x3d0bfc11	0.034175936
157	0x3be9ee50	0.0071390048
158	0xbcfbab35	-0.030721286
159	0x3cd4c07c	0.02597069
160	0xbbbfd773	-0.005854541
161	0x3d2f2017	0.042755213
162	0xbe5c77ac	-0.21530026
163	0xbb29ac05	-0.0025889885
164	0x3d6dfe03	0.058103573
165	0x3db69635	0.089153685
166	0xbaa5c795	-0.0012647981
167	0x3d56820b	0.052370112
168	0x3c2bd575	0.010487904
169	0x3da94420	0.08264947
170	0xbb2d0e4f	-0.0026406234
171	0xbcbf0a67	-0.02332039
172	0xbd00dea7	-0.031462338
173	0x3d486a15	0.048929293
174	0xbdc79e73	-0.09747019
175	0xbd015917	-0.031579103
176	0x3bef0c4b	0.0072951666
177	0xbdf80c77	-0.121117525
178	0xbdd9cdb6	-0.106349394
179	0x3c0fd0c0	0.008777797
180	0xbce0c212	-0.02743629
181	0x3ce35d8a	0.027754564
182	0xbd31af28	-0.043379933
183	0xbde20ac6	-0.11037211
184	0xbdb8010e	-0.08984576
185	0xbd6bf3e6	-0.057605647
186	0xbc895a41	-0.01676667
187	0x3d15f6c3	0.036612283
188	0x3ca62cea	0.020285089
189	0xbd96c0fb	-0.07361027
190	0xbde61a20	-0.11235452
191	0xbad4cc5b	-0.0016235219
192	0xbd929ab0	-0.071584105
193	0x3d8b5562	0.06803395
194	0xbeb77abc	-0.35835826
195	0xbdc42eb9	-0.09579224
196	0x38935db8	7.026963e-05
197	0x3cca9325	0.024728367
198	0x3dc84251	0.09778274
199	0xbd20e85f	-0.039284106
200	0x3b254af6	0.0025221682
201	0x3c3e081a	0.011598611
202	0xbc01b41c	-0.007916477
203	0x3dee865a	0.11646719
204	0xbd981fdb	-0.07427951
205	0xbd72646f	-0.059177812
206	0xbcb84940	-0.022495866
207	0xbe61068b	-0.21975152
208	0x3d73d27a	0.059526898
209	0x3cbe7859	0.023250746
210	0x3cb20af0	0.021733731
211	0xbe1f26b5	-0.1554211
212	0xbdfcff9b	-0.123534404
213	0x3dab442d	0.08362613
214	0x3d86756f	0.065653674
215	0x3dd2fb57	0.103018455
216	0xbd148525	-0.03625979
217	0xbcc071b2	-0.023491714
218	0xbbd00d55	-0.0063492456
219	0x3ba52767	0.0050400975
220	0x3d46e762	0.048560508
221	0xbd80b164	-0.062838346
222	0xbc2ac10f	-0.010422005
223	0xbd0b2018	-0.033966154
224	0x3ce2ab61	0.02766961
225	0x3b880e7f	0.0041521187
226	0xbd7f1d5e	-0.062283866
227	0x3ebd66cb	0.36992487
228	0x3d1b7fd6	0.03796371
229	0x3cf8b464	0.030359454
230	0xbd958db5	-0.07302419
231	0x3c26a7d4	0.010171849
232	0x3dfa0f0b	0.122099005
233	0xbd1ae446	-0.037815355
234	0x3dddb8c3	0.10826256
235	0xbcb5947d	-0.022165531
236	0xbc03ebb0	-0.008051798
237	0x3d14794a	0.036248483
238	0xbd515a03	-0.051111232
239	0x3d012827	0.031532433
240	0x3e206a62	0.15665582
241	0x3debadc7	0.11507755
242	0x3c32049a	0.010865355
243	0xbe02d66a	-0.12777105
244	0x3b58adfa	0.0033062682
245	0xbdc80d36	-0.09768145
246	0x3d28331d	0.04106437
247	0xbc9eb379	-0.019372689
248	0x3e288659	0.164575
249	0xbb19f3f8	-0.0023491364
250	0x3dc183e7	0.094489865
251	0x3cd7154c	0.026255272
252	0xbac176c1	-0.0014760123
253	0x3d27a2f3	0.040926885
254	0x3c8ac17b	0.016937962
255	0x3dab366c	0.083599895

fc.bias f4 [64]
0	0x3dc35bef	0.09539019
1	0xbdd41396	-0.10355298
2	0x3e333b97	0.175032
3	0x3cdbf0a7	0.02684815
4	0x3d1a4bf1	0.03767008
5	0x3d708ab1	0.058726016
6	0x3e3dd4df	0.18538235
7	0xbdcc98b9	-0.09990067
8	0x3dc8ad41	0.097986706
9	0x3cf6625b	0.030076196
10	0xbaa4292c	-0.0012524477
11	0xbd94d7c1	-0.07267714
12	0x3d2c6d1a	0.042096235
13	0xbd5e6682	-0.054296978
14	0x3ca10eff	0.019660471
15	0xbd6b31f3	-0.057420682
16	0xbdeec6fd	-0.11659048
17	0xbe051701	-0.12997057
18	0x3cbd06dc	0.02307456
19	0xb9be95a9	-0.0003635113
20	0x3e0d1326	0.13776836
21	0x3d989718	0.07450694
22	0x3d435080	0.047684193
23	0xbdd858a3	-0.10563781
24	0x3e23468f	0.15944885
25	0x3d55d586	0.052205585
26	0x3d20fc56	0.039303146
27	0xbdaa5712	-0.083173886
28	0x3a8b924f	0.0010648462
29	0xbd5ba6ec	-0.053625986
30	0x3cbd14a6	0.023081135
31	0x3d2ec3ad	0.04266708
32	0xbe1608c7	-0.14651786
33	0xbd6f2285	-0.05838253
34	0x3ddc73bd	0.10764263
35	0x3bb3d0ee	0.005487553
36	0xbd0803ad	-0.03320663
37	0x3d80c229	0.06287033
38	0xbd4cc165	-0.049989123
39	0xbd0dd207	-0.034624126
40	0x3d2faa8c	0.042887256
41	0xbe07cf49	-0.13262667
42	0xbde0064e	-0.109387025
43	0xbe03055c	-0.12795013
44	0x3deed650	0.116619706
45	0xbd3e4d5a	-0.046460487
46	0x3cf3219c	0.029679112
47	0x3e041093	0.12896948
48	0x3d37fa45	0.04491641
49	0xbdb072d5	-0.086156525
50	0xbde7e7f1	-0.11323536
51	0x3c186a73	0.009302723
52	0x3d9bff2b	0.07617029
53	0xbc337263	-0.010952565
54	0xbd632abd	-0.05546068
55	0xbc8ac3bb	-0.016939035
56	0xbde861c1	-0.1134677
57	0xbe04b733	-0.1296051
58	0x3d91c02c	0.07116732
59	0x3d9d8308	0.07691008
60	0xbe030c7d	-0.12797733
61	0x3cbfa0c5	0.02339209
62	0xbc1336b8	-0.008985214
63	0x3dac7be1	0.084220655

fc2.weight f4 [3, 64]
0	0xbed66475	-0.41873518
1	0xbba4a475	-0.0050244876
2	0x3e625604	0.22103125
3	0x3e18bc39	0.14915551
4	0x3d217522	0.039418347
5	0x3ddc5b3f	0.10759591
6	0x3f827fb7	1.0195225
7	0x3e31992d	0.17343588
8	0xbedcb6bd	-0.43108168
9	0x3f02cf69	0.5109773
10	0x3e45c22e	0.19312355
11	0x3dc24bd6	0.09487121
12	0x3e2cb1ab	0.1686465
13	0x3dbcb746	0.09214644
14	0xbd253569	-0.04033414
15	0x3d708e95	0.058729727
16	0xbd7eeb6c	-0.062236235
17	0x3e520c6f	0.20512556
18	0x3e301c7f	0.1719837
19	0xbd8238bd	-0.06358478
20	0xbef51b77	-0.47872517
21	0xbc71f922	-0.014768871
22	0xbe448fdd	-0.19195504
23	0x3dfe4cff	0.124170296
24	0xbed354a7	-0.41275522
25	0xbda4f910	-0.080553174
26	0xbd91fd82	-0.07128431
27	0xbd0241e7	-0.03180113
28	0x3e0dfcf4	0.13866025
29	0x3b1f0d52	0.0024269414
30	0xbd3b17eb	-0.045677107
31	0xbe8d3f34	-0.27587283
32	0x3c5e85ce	0.013581706
33	0x3e27d1fc	0.16388696
34	0x3f9927fa	1.1965325
35	0x3b5f1419	0.0034039079
36	0xbc9a6318	-0.01884608
37	0x3e8d1688	0.27556252
38	0x3d0f7a0b	0.0350285
39	0x3d82bebc	0.06384036
40	0x3db8761d	0.09006903
41	0x3e8beb2e	0.27327865
42	0xbcb68e49	-0.022284644
43	0xbf2a2d6e	-0.6647557
44	0xbeb61c98	-0.3556869
45	0x3d6cc65e	0.057806365
46	0xbe00a4f3	-0.12562923
47	0x3b704ad3	0.0036665692
48	0xbe5d4171	-0.21606995
49	0x3e1f52c4	0.15558916
50	0xbdab8398	-0.08374709
51	0xbddff1c2	-0.109347835
52	0x3c67d6d5	0.014150341
53	0xbcc4a20c	-0.024003051
54	0x3d65f98b	0.056146186
55	0xbe8f99c7	-0.2804701
56	0xbca1f4d5	-0.019770065
57	0xbf19dc4c	-0.6010177
58	0x3b7d74b7	0.0038674304
59	0xbe55ab1b	-0.20866053
60	0x3c9f1c66	0.019422721
61	0x3e414cba	0.18876925
62	0xbbd8321c	-0.0065977704
63	0x3faf684e	1.3703706
64	0x3ea52a71	0.32258943
65	0xbcba5757	-0.022746725
66	0x3f036e01	0.5133973
67	0x3d891898	0.06694144
68	0xbd0cbcbf	-0.03435969
69	0xbd687e79	-0.05676124
70	0x3f6f2e9e	0.9343051
71	0xbe62a8ba	-0.22134677
72	0x3e51751e	0.20454833
73	0x3f67d50e	0.9055947
74	0x3d151c36	0.036403857
75	0xbe442673	-0.19155292
76	0xbe500807	-0.20315562
77	0xbe2954e5	-0.16536291
78	0xbdaa926e	-0.083287105
79	0xbd873e9e	-0.0660374
80	0xbd351ba5	-0.044215817
81	0xbd952e5d	-0.07284234
82	0x3ca8e722	0.020618025
83	0xbdaa8bfc	-0.08327481
84	0x3e28ef31	0.16497494
85	0xbdf8f276	-0.12155621
86	0xbd07668b	-0.033056777
87	0xbe84a4cc	-0.2590698
88	0x3e9570c3	0.29187593
89	0xbdef67a7	-0.11689692
90	0xbde52da0	-0.11190343
91	0x3d14160d	0.03615384
92	0xbd5e0909	-0.054207835
93	0x3d48b8a0	0.049004197
94	0xbd254b55	-0.040355045
95	0x3decb787	0.115584426
96	0xbcb708b0	-0.02234301
97	0x3d4ca428	0.04996124
98	0x3f79663f	0.9742164
99	0xbc4c47af	-0.012468263
100	0x3d3b97e9	0.04579917
101	0xbdaf4989	-0.085589476
102	0xbdd5c7b8	-0.10438484
103	0x3d04a208	0.032381088
104	0xbd4db097	-0.050217237
105	0xbd63cee1	-0.055617217
106	0xbe5f41aa	-0.21802393
107	0x3db22841	0.08699084
108	0x3d27486b	0.040840548
109	0xbd5ee9a7	-0.054422047
110	0xbe36f3ad	-0.17866392
111	0xbec7ba83	-0.39009485
112	0x3d2912e8	0.041277796
113	0x3b82398d	0.0039741457
114	0xbd9b1943	-0.07573178
115	0xbcc405c8	-0.023928538
116	0xb9cf1582	-0.0003949814
117	0xbdf65e4c	-0.120297045
118	0x3dac27e0	0.08406043
119	0x3f111eb0	0.5668745
120	0x3d69e000	0.05709839
121	0x3ee30359	0.44338492
122	0xbd341703	-0.04396726
123	0xbd9544d2	-0.07288517
124	0xbdaa751d	-0.08323119
125	0x3d07c6b3	0.03314848
126	0x3cbbe0cd	0.022934342
127	0x3f882c98	1.0638609
128	0x3d901c54	0.07036653
129	0xbc883027	-0.016624523
130	0xbf46b575	-0.7762063
131	0xbe98ac91	-0.29819158
132	0xbe7c96d5	-0.24666913
133	0x3dc13aaf	0.09435021
134	0xc00ed8bd	-2.2319787
135	0xbcb46a7e	-0.022023436
136	0x3d1d980f	0.038475093
137	0xbfc2160b	-1.5162977
138	0xbe92ff1c	-0.28710258
139	0x3d93aad8	0.0721032
140	0x3df2a315	0.11847512
141	0x3d22c66f	0.039740022
142	0xbda7dfdb	-0.08196994
143	0xbd93aefe	-0.072111115
144	0xbd93b4cb	-0.07212218
145	0xbe64b290	-0.22333741
146	0xbe782d45	-0.24236019
147	0x3db53a7e	0.08849047
148	0x3d18d8ae	0.037316017
149	0x3deec038	0.116577566
150	0x3e2727b4	0.1632374
151	0x3dc6c1b5	0.097049154
152	0x3dd295d5	0.102824844
153	0x3d9fa5ab	0.077952705
154	0x3d5cee36	0.053938113
155	0x3c29ce42	0.010364117
156	0x3d1f21a8	0.038850456
157	0x3d9164a3	0.07099273
158	0x3dd07e1d	0.10180304
159	0x3dcfe134	0.10150376
160	0xbd0b6282	-0.03402949
161	0xbe8e0a1b	-0.27742085
162	0xc009bde6	-2.1522155
163	0x3c8aec62	0.01695842
164	0xbca5fb5a	-0.020261455
165	0xbe400c2f	-0.18754648
166	0x3de231f7	0.11044686
167	0xbd98fdcf	-0.07470285
168	0x3d166c1d	0.0367242
169	0xbe361db3	-0.17784767
170	0x3ea8f8a9	0.33002213
171	0x3e8da7ea	0.2766717
172	0x3da9f459	0.08298559
173	0x3dd6d853	0.10490479
174	0x3eafd896	0.3434493
175	0x3ec21c66	0.3791229
176	0x3cc6029e	0.02417117
177	0xbe712576	-0.23549446
178	0x3d781f7e	0.06057691
179	0x3d9832c4	0.07431558
180	0x3c50cf8b	0.012744795
181	0x3d188111	0.037232462
182	0xbde052a3	-0.10953262
183	0xbe5d1cf5	-0.21593077
184	0x3cecfe3e	0.028929826
185	0x3e52312c	0.2052657
186	0x3db97b38	0.09056705
187	0x3df48818	0.1194002
188	0xbd0c362d	-0.034231354
189	0xbe99b421	-0.3002024
190	0x3d89a997	0.067218
191	0xc020ab90	-2.5104713

fc2.bias f4 [3]
0	0xbd8291d2	-0.06375469
1	0x3cc0886c	0.023502551
2	0x3d7f0510	0.062260687
