predictor/best_model.pt (torch, 233273 bytes, 9 tensors)

embedding.weight f4 [1070, 32]
00000000: 0731 8fbe 0f58 0e3e 7323 03bd ed63 9ebf
00000010: ea0e 343f f68c 2ac0 8d53 713e 4c79 863f
00000020: 3455 a03e ad54 87bf da15 a73f f1da 633f
00000030: 4a63 0bbf eae7 b3be 060f 9f3d 1ed1 413f
00000040: 7cfe 95be 36b9 c2bf b4ef c0be a9f2 4fbf
00000050: e3cb 96bf 782a 9c3d 7542 4a3e 6664 81be
00000060: fa7e 403f 0af3 363f db35 433e 1f19 09bd
00000070: 5047 9ebf c767 12c0 223f 95bc 56cf 9dbd
00000080: 9ce2 cf3d 03f2 703f 4579 bdbe 6785 a3be
00000090: 1146 983f 3789 b4be f6f1 503f 2c67 9cbf
000000a0: 13e8 df3f a70a 62bf 7830 943f 42ba 8f3f
000000b0: e9fd bfbd ec19 febf fd32 c43e 22e0 993f
000000c0: 1d6d 1cbd fa59 00c0 7fd4 b83e a7a1 943f
000000d0: 15ec b63d fda3 44bf bc79 1ebe 5f1d 93be
000000e0: a174 973f 697e b4bf 065f 73be d7c2 67be
000000f0: 35d1 cd3e 6a20 f7be 8b0d 813f 4eb9 583f
00000100: b8dd a13e 6087 863e 8014 9ebf 29b9 443f
00000110: 2ea5 86bf fa0a 97be f58c 8fbe 9dfa c2bd
00000120: 85ce 813e febe f53f 7137 863f 0d70 b33f
00000130: 205b fabe 1c05 ab3f b980 38bf cbe5 e33e
00000140: 205f a43f 4ca9 c2bf 6c49 a6bf 951e abbe
00000150: d78b bc3e 0aab efbe fa1d f9bf 5773 8b3f
00000160: a157 85be ec5f 9bbf 0cbe aebd 068f 08c0
00000170: a30e e23f 6bd6 e93e 91e8 163d 97f0 3f3f
00000180: fcbe 8abf eb2f 863f cd91 3bbd 8481 423f
00000190: 9ad5 08be 9efe f73e 721d 8dbe e4d0 b2bf
000001a0: 0b4e a2bf d35b 99be 8804 343f 5c95 b43f
000001b0: 5180 bc3d 6e1f dcbc b831 ccbe 5057 d33c
000001c0: cbc8 0ebe bf52 97bf b15f 55bf 9a72 983e
000001d0: dfe6 32bf f5ef 963f c3e0 303e 0aa1 a2bf
000001e0: 9ac6 9abe 82ad 623f cb37 153f 07b2 1ebf
000001f0: 3df9 68be 52f7 74bf 72d5 a8bf 86fb aabe
00000200: 0714 f83d 67cc 093f f93c 383d 2100 33bf
00000210: a3c2 8b3f 9e54 bdbb 565e 49bd 4720 58bf
00000220: 3bad 253f 4aaa 303f dc16 3a3f adcd f83e
00000230: 2c2e 2c3f 1f46 a9bf 04a7 1940 7cbf cc3e
00000240: 68bc 37bf 0a7a 19bd 3735 833f 0b22 d0bf
00000250: 6fc5 96bf 5eaa d63f baba d4be e343 08be
00000260: f2f9 c43c 6336 64bf c293 143f 876b e83e
00000270: c1ce fd3f d599 2bc0 fb0c 42be 7b47 693f
00000280: 1cdd 9b3d 7f75 413f 9349 43bf 9622 733f
00000290: d722 7a3f f9db 64bf 7f2c 1440 8d73 763f
000002a0: 038b 26be a3e6 ddbe 4b03 793e 2251 9d3f
000002b0: a4ab 95bf e1be 1a3f 3d6d 5cbf a179 22bf
000002c0: 7cee 1fbf da6e d13f c697 0d3f 3546 eabf
000002d0: 8b48 03be 92c2 30be 0576 61bf 40d1 a53f
000002e0: 69b8 cf3e 7436 6c3f 274e 74bf 7685 be3d
000002f0: 0820 f8be a51c 07c0 ad18 0c3f 488d eebd
00000300: 3be0 b6be 643e d03f dc01 40bf 13b2 9b3f
00000310: 022d 7a3d f5e6 273f c353 9fbc 52ba 00bf
00000320: 3a0b 2c3e dc29 d33e 0512 6abe bd5a cdbf
00000330: 4aa1 823f ae5b 533f 8921 15bd fd18 edbf
00000340: e401 9f3f cbd0 49bf aa68 783f 4fb4 333f
00000350: 26f6 e33f 2246 b33e 8e93 6d3f 1eec 95be
00000360: d431 cabe 8723 c63e 5d3d 58bf 7221 dbbe
00000370: 4410 2f3f 5952 fabf 91dc e0bc ec2e 233e
00000380: 9239 d9be a8da be3c 6cea 47be 8e43 b13e
00000390: 4ca3 e73e 8869 9bbe a41b 1d3f 87bf 0f3f
000003a0: 8f79 da3f 5437 2e40 e4c6 b4bf d5a2 d9bf
000003b0: c3e8 8fbf cda7 f1bd 8d9a 45be 31d9 b53e
000003c0: 9daf 6f3f fc7c d5bf 766b 6f3f bb03 13c0
000003d0: a566 b63e 2de0 72bf 1ced 223f 4b4f b0be
000003e0: 2fe7 35be f33a d4bc 003a dfbe 5135 98bf
000003f0: 9f25 9a3f ec7d 643f dbd8 b6be a9fd 7ebe
-0.27967092 0.13900779 -0.03201623 -1.2374245 0.7033526 -2.6648536 0.23567028 1.0505767
0.31315005 -1.0572716 1.3053544 0.89005953 -0.5444838 -0.35137874 0.07766537 0.7570971
-0.2929572 -1.5212772 -0.3768288 -0.81229645 -1.1780971 0.07625288 0.19751914 -0.2527191
0.7519375 0.714646 0.19063513 -0.033471223 -1.2365513 -2.287584 -0.01821858 -0.07705562
0.10150644 0.9411928 -0.37006584 -0.31937715 1.1896383 -0.35260937 0.81619203 -1.2218986
1.7492698 -0.88297504 1.1577291 1.1228716 -0.093746014 -1.9851661 0.3832015 1.2021525
-0.038189996 -2.0054917 0.36099622 1.1611832 0.08931748 -0.76812726 -0.15476125 -0.28733346
1.1832467 -1.4101077 -0.23766717 -0.22632919 0.40198675 -0.48266917 1.0082258 0.8465775
0.3161447 0.26275158 -1.2350006 0.7684503 -1.0519159 -0.29500562 -0.2803723 -0.09520457
0.25352874 1.9198911 1.0485669 1.401857 -0.48897648 1.3360934 -0.72071415 0.44511256
1.284153 -1.5207915 -1.2991157 -0.3342177 0.3682544 -0.4681018 -1.9462273 1.0894574
-0.26043418 -1.2138648 -0.08532342 -2.1337295 1.7660717 0.456714 0.036842886 0.74976486
-1.0839534 1.0483373 -0.045793343 0.75978875 -0.13362733 0.48436445 -0.27561527 -1.3969998
-1.2680067 -0.2995287 0.70319414 1.4108081 0.09204162 -0.026870456 -0.39881682 0.02579847
-0.13943784 -1.1822127 -0.8334914 0.29774934 -0.6988353 1.1791979 0.1727324 -1.2705395
-0.30229646 0.88546 0.5828826 -0.619904 -0.22751327 -0.9568988 -1.3190138 -0.33395022
0.12113195 0.5382752 0.044980023 -0.6992207 1.0918773 -0.0057779094 -0.04916223 -0.8442425
0.64717454 0.6900984 0.7269113 0.48594418 0.6725795 -1.3224524 2.4008188 0.3998984
-0.7177186 -0.0374699 1.0250615 -1.6260389 -1.1779002 1.6770742 -0.4154871 -0.13307147
0.024044964 -0.8914549 0.5803796 0.45394537 1.9828721 -2.6812642 -0.18950264 0.91124696
0.07610533 0.7556991 -0.7628414 0.9497465 0.9770941 -0.8939815 2.3152158 0.96270066
-0.16263966 -0.43340024 0.24317662 1.2290385 -1.1693006 0.6044751 -0.86104184 -0.6346684
-0.62473273 1.6361954 0.5530971 -1.8302675 -0.12820642 -0.17261723 -0.8807071 1.2954483
0.4057038 0.9227059 -0.9543175 0.093027994 -0.48461938 -2.1111233 0.5472515 -0.11648041
-0.3571795 1.626904 -0.7500284 1.2163719 0.06107808 0.6558679 -0.01944912 -0.502843
0.16801158 0.41242874 -0.22858436 -1.6043316 1.0205472 0.8256177 -0.036408935 -1.8523251
1.2422452 -0.7883422 0.97034705 0.70197004 1.7809494 0.35014445 0.92803276 -0.29281706
-0.3949114 0.3869898 -0.8446863 -0.42798954 0.68384194 -1.955638 -0.027448924 0.15935868
-0.42426735 0.023297623 -0.19523019 0.34621853 0.45241773 -0.3035395 0.613703 0.5615162
1.7068347 2.722127 -1.4123197 -1.7002817 -1.1242908 -0.117995836 -0.19297238 0.35517266
0.9362734 -1.6678767 0.9352335 -2.2971027 0.35625187 -0.94873315 0.6364305 -0.34435496
-0.17763971 -0.025907015 -0.43598938 -1.1891271 1.2042731 0.8925464 -0.35712323 -0.24901451

gru.weight_ih_l0 f4 [192, 32]
00000000: 6da4 7e3e 819a c93c 65b9 d53c 831e e33d
00000010: 1c8c 32be fdcc fabc 43cc 433e 09df 3cbd
00000020: 5594 e53d 939e c23d 6b8a 0f3e 9472 e0bc
00000030: bb3e 403e 6bba ba3c 6f9f c93d 9dfa 913c
00000040: 674f 9a3e 88e1 213e 5663 96bc 7c36 d93d
00000050: 2658 e23d 8250 473e da07 2bbe 0769 3abd
00000060: a2b4 c9ba dfd8 46bd 79e2 433e a52e 8fbe
00000070: 88b6 1b3d 5322 b53d dbdc 9fbe 8f57 413e
00000080: 0eda 74be 429d 9dbd fcdf 0fbe b361 c83a
00000090: 3e12 9bbd 5435 2abd df7a 43bd fbaf 973d
000000a0: a5b0 11bb ab88 14be 84be 213d 35ca c23d
000000b0: 0957 c63b ed5b 85be 9049 7abe 13d4 0b3c
000000c0: 0a94 98be ee13 973c 3e51 38bd ac56 1dbc
000000d0: c789 42be a8ee 733d 5aa1 443d fdd7 f4bd
000000e0: 835e 5e3e 29e6 23bd 8447 c63b c694 09be
000000f0: 80b0 4dbe 8f0a 3fbd 3f97 463b 58ac 93bd
00000100: c14b ad3d dbfc 78be 827e 073e 225c bdbc
00000110: 723c 32be d502 d039 8c16 efbe dfb8 08be
00000120: 91cd 54be 304c 643e 697b f4bd 24b3 89be
00000130: 84ef 943c 930e 033e ec7b fdbd 7312 bdbd
00000140: b8bd d5bd 4026 3e3e 7377 b93d bd2c d03c
00000150: 605d 8ebd c2bf 043e 7b97 183d aefd a1bb
00000160: 66de 3fbe eeb3 86be f906 e3bd 7ec4 a43d
00000170: 3041 21bc 8e2b d83d 997d 39bd 7c0c c8bd
00000180: 189a f13c 02fa 2bbe 6e99 0d3e 4b1f 973e
00000190: 62c8 a53d 38d9 a03d 6c94 9bbe 6438 0abe
000001a0: e234 5ebd 4632 b03e abc7 51bd 30aa 07be
000001b0: 096d f33b c44c 24bd 63c5 2abb df48 c8bd
000001c0: a79e 583b f898 923e f90f 433e 0cf3 913d
000001d0: 520f a83d df7d c63d a5cb 12bd 0f32 663e
000001e0: e580 9bbd 9875 a7bd 6ee7 52be 35a7 903d
000001f0: 3ce2 b53e e496 22be 0f23 bdbe 422f 9bbe
00000200: e722 9d3c de8b 1dbd 7a9c 2abc a6bc 303e
00000210: 2020 35be a682 b53e a431 dfbc 23b3 55bb
00000220: 3b75 03be 0fc1 573e e052 5bbe 4293 09bd
00000230: 5027 4f3e cbc1 893e 0df9 c9bb b554 4ebe
00000240: 9c27 d73d 506a 4f3e 4256 803e 169f 333e
00000250: 57f0 cd3d a5fe 573e 36cb 803c f1f6 be3d
00000260: 2d1d d33d be6b 32be 5720 5a3e 80d5 5c3e
00000270: a54c b93c 3d93 d0bd 0a1c 04be 87b9 bcbc
00000280: 75f0 ce3e 03bd acbe 6d60 2fbd 730a d43d
00000290: 52a7 76be 2c43 8c3e 5f7b a43e 38be f2bd
000002a0: 6278 a43d 07e6 723e 3c8c 89bd 8ee2 63be
000002b0: 16d4 88bd ca2e 923e 0448 6cbd 1221 f33d
000002c0: ea79 993e cd4b 2a3e 5083 1bbe 97c2 c43e
000002d0: 1756 c23e 4cef a6bd 011f 8dbd 37a3 25be
000002e0: bec3 2abe d91d 80be d72c 99bc e5e6 87be
000002f0: cf37 813e 5044 413e 2c87 4d3e 2bf8 883e
00000300: 1b44 efbd 12e3 04be 8f29 73bc a777 333d
00000310: 1072 2b3e 44b1 953c b06d 32bd 5a67 dbbb
00000320: d56e 393e a323 6b3a d688 25bd abd6 1ebe
00000330: 233a 30be 73a1 39be 4bf7 38bd cd7b 5b3e
00000340: a1ac b4bd f199 43bd e099 29bd 5f32 b5bd
00000350: 6fe7 98bc 37d0 9b3d 252d f83c 31b0 803d
00000360: ef63 563e 3a82 70be 153b fe3d c8bc 8ebe
00000370: 29cb 5fbe 13d5 433e 5bf7 3ebe 4311 a43c
00000380: 6879 263e 0501 cbbe 25f9 b53c 53d0 333e
00000390: e4f4 a9bd ed66 123e 93ee 1e3a 54bc 04be
000003a0: 5303 74bc 6f47 293c 147a a1bb f4b4 6fbe
000003b0: 7670 183e b03a 2e3e a420 8abc 278b 71be
000003c0: 461d 243e bddd ad3c e2fe 1e3e 0504 49bd
000003d0: 79bd b1bb 0cd0 873b 26f6 77be 5cb6 123e
000003e0: 3094 423d 15ac dfbd aa3d a3bd 38df 2ebe
000003f0: 1be0 8c3d c50a 703d 4fe9 bbbe ccd1 c83d
0.24867411 0.024609806 0.02608938 0.11089804 -0.1743626 -0.030615324 0.19120888 -0.04611114
0.11209933 0.09502902 0.14017646 -0.027398385 0.1877393 0.02279397 0.09844863 0.017819697
0.30138704 0.1580869 -0.018357914 0.10606095 0.11051969 0.19464305 -0.16702214 -0.045510318
-0.0015388916 -0.04854667 0.19129361 -0.27965274 0.038015872 0.088444375 -0.31223187 0.18881057
-0.23911306 -0.0769601 -0.14050287 0.0015287906 -0.07571839 -0.041554764 -0.0477246 0.074066125
-0.0022230532 -0.1450526 0.03948833 0.09511224 0.006052856 -0.26046696 -0.24442124 0.008534449
-0.29800445 0.01844212 -0.044999354 -0.009603184 -0.1899787 0.059553772 0.04800544 -0.11955259
0.21715741 -0.04001442 0.006051006 -0.13435659 -0.2008686 -0.04664093 0.0030302552 -0.07210606
0.084617145 -0.24315207 0.13231853 -0.023115221 -0.1740587 0.00039674962 -0.4669689 -0.13351773
-0.20781542 0.22294688 -0.11937601 -0.26894486 0.018180616 0.12798528 -0.12377152 -0.092320345
-0.104365766 0.18569279 0.09055986 0.025411958 -0.069514036 0.12963775 0.037253838 -0.004943571
-0.18737182 -0.2630915 -0.11085314 0.080452904 -0.009842202 0.105551824 -0.045285795 -0.09768006
0.029492423 -0.16794589 0.1382806 0.29516062 0.080948606 0.07853931 -0.30386674 -0.13498074
-0.05424965 0.34413356 -0.05121581 -0.13248515 0.0074287695 -0.040112272 -0.0026057593 -0.09779524
0.0033053549 0.2863233 0.19049062 0.07126436 0.08206047 0.09691977 -0.03583874 0.22480033
-0.07592944 -0.08176726 -0.20596096 0.07063142 0.35524166 -0.15877873 -0.3694081 -0.30309492
0.019181682 -0.038463466 -0.0104132835 0.17259464 -0.17688036 0.3545124 -0.02724535 -0.0032607995
-0.12837689 0.2106974 -0.21418333 -0.0335877 0.2022984 0.26905665 -0.0061637224 -0.201495
0.10505602 0.20255399 0.2506581 0.17541155 0.10055607 0.21093233 0.015721899 0.09324444
0.10308299 -0.17423913 0.21301399 0.21565819 0.022619555 -0.101843335 -0.12901321 -0.023037685
0.4041783 -0.33737954 -0.04281657 0.103535555 -0.24087265 0.27394998 0.32125375 -0.118526876
0.08030774 0.23720561 -0.06716201 -0.22254393 -0.06681077 0.28551322 -0.057685867 0.11871542
0.29975826 0.16630478 -0.1518681 0.3842971 0.37956306 -0.08151111 -0.06890679 -0.16175543
-0.16676232 -0.25022772 -0.01869814 -0.26543346 0.2523789 0.18873715 0.20071095 0.26751837
-0.11682912 -0.12977245 -0.014841451 0.04381528 0.1674273 0.018273003 -0.043561637 -0.00669567
0.18108685 0.0008969849 -0.0404137 -0.15511577 -0.17209677 -0.18127994 -0.045157712 0.21433945
-0.08821989 -0.04775423 -0.041406512 -0.08847498 -0.018665044 0.07608073 0.030294964 0.06283606
0.20936559 -0.23487177 0.12413613 -0.27878404 -0.21854843 0.1912425 -0.18649046 0.020027762
0.1625725 -0.39649215 0.022213528 0.17559938 -0.08298662 0.14297076 0.0006062772 -0.12962466
-0.014893371 0.0103319725 -0.004927883 -0.23408872 0.1488665 0.17014575 -0.016861267 -0.23588239
0.16026792 0.021223897 0.15526918 -0.0490761 -0.005424198 0.004144674 -0.24214992 0.14327377
0.047504604 -0.10921494 -0.07970746 -0.17077339 0.06878682 0.05860402 -0.36701438 0.098056406

gru.weight_hh_l0 f4 [192, 64]
00000000: cce8 f5bd 84ee 093e 0cad 97bd 04a5 243e
00000010: 9020 dcbd cc6f 283e 5014 253d cf93 9f3d
00000020: 4f83 4abd 687d 833e 824a cb3d d728 4ebe
00000030: ff79 59bb 6da1 8bbe dc32 213e 489a aa3d
00000040: 2f9f e53d 6d88 ec3d 696f 96be e022 093e
00000050: af6f f2bd 699e 653e 0c5a 2a3c 867a 1e3e
00000060: 22a9 dc3b 289a dbbe c537 a03a 85b6 833b
00000070: 6258 123e ce81 14bd 4605 3cbd 3530 88bd
00000080: 76bf 66be 34fd 6e3b e4d2 44be 46c8 e2bd
00000090: 1e41 96be 448c c23c 4c84 983e 4a0c c0bd
000000a0: 2a66 6b3d 5c7e 613e 6900 703e c242 1cbd
000000b0: 1dee 723e de66 26be 50b5 5b3e 617a 2ebd
000000c0: e87f 183e cccc 85bd 78d9 0cbd b616 fd3d
000000d0: 6628 803e ad67 b33e 940b e2ba 50ab 06be
000000e0: 3bfa e0bd 2e57 5bbe cbb4 a9bd 64e0 9fbd
000000f0: 45aa 32be 23c0 5abd cac6 c3bd 4be7 aabd
00000100: 15d7 143e ef3c a7bc f9f3 63bd 3416 8f3e
00000110: 0bdd 913e df15 fbbd 3637 603e 190a fd3d
00000120: c6a0 133e 38cb 273e 7bc0 b0bd 71b3 81be
00000130: 829f cf3c 4e3b 193d 9a02 0cbd de17 13bf
00000140: 5b3e 22bd 9723 1ebd 8a1d 0b3f a470 073d
00000150: dc5b 43be 9bb7 603d d53e 483e 1321 2e3d
00000160: 1677 f53c 3bb1 983e ad7a c9bb 6955 1b3e
00000170: b317 7ebd 6226 e03d 78b0 88bd 0098 99be
00000180: 2c6f 10be 56ab f5bd cf9b 90bd e39b d2bd
00000190: 740e b1bd 0b3b 053e e138 2fbe 7774 38be
000001a0: 5117 7cbe 1fcb 57be a70c 99be 0939 a2be
000001b0: 012b 01be 5a60 fcbd 9a66 e4bd 0a94 16be
000001c0: c47a 83be 2de8 c3bc ae29 2c3d f51e 203d
000001d0: eea2 5f3d 0aab 893e de39 a1bd 1573 26be
000001e0: a117 81be 1f93 23be 5c6d 093e 2a4c 983d
000001f0: 27cf bd3c cfba 2cbc fec3 0a3e a62b e73c
00000200: 87a7 813c d48e dbbd 9884 a53d 1ed3 8abe
00000210: 0cc8 fd3c b4c3 613d 66ae 3c3d 2a4b e8bd
00000220: 8543 56be 5409 32bc 03b3 71be b6a9 cdbe
00000230: c963 743d 8150 d0bd c200 dabc 1928 743e
00000240: b909 3f3e cb5a 583e dd30 863d 065b 30be
00000250: 63af 873c 9458 553e 0b73 89bd f547 e5bd
00000260: 6307 5bbe 1959 abbd 9176 c53d 585b 21be
00000270: 2218 2b3e 46a2 a43d 57e3 093e e994 92bd
00000280: f9be 703e c0a3 423d b6db 2abe 60ac 623e
00000290: c950 64be d56c bbbd 2661 ca3e 4d72 9f3e
000002a0: 19df d1bc abba 2b3e 98af 083e 0c02 2b3d
000002b0: 6d8e 35bd 26c8 63be 1eb9 86be 9acd 3e3e
000002c0: e6ef 18be 04f3 19bd 63b6 14be 89f8 06be
000002d0: 4a76 963e 3a24 a93e 48df 38be 66af 61be
000002e0: 484d f1bc d922 663c b453 71be 2e8f 00bd
000002f0: f65b 583c 323d 0b3d 4d96 28be c968 7d3c
00000300: e90e f93d eea1 713e 7cf7 523d bb62 643d
00000310: a310 b2be 93cb b63b 43a3 5fbe 1e46 3ebe
00000320: f9a4 333e 98ef dabe b592 543e 84eb 79be
00000330: 8c2f 57bd 1bd7 293c 070a 7f3d 6a3d d0bd
00000340: 04ff a23d 69ce 9b3e f7fe a9be 69e1 0cbe
00000350: 30ff e8bb ccc9 1c3d 704b 2ebe d7ff 03bd
00000360: c893 2d3d 9dd3 cdbe 399d 8fbd a66f 6bbd
00000370: f929 a6be 7abe 233d 4cd8 2a3d 794f c63e
00000380: f44e 443e 08a7 233e 3a99 2d3d 3e8a 113e
00000390: 0691 963d 11f3 2a3e 47ba 27be 7419 3a3e
000003a0: 20a5 553d ffba f7bd 7998 f9bc b441 3fbe
000003b0: ec06 8c3e f4bc cc3c 7168 c83b c64b 7f3e
000003c0: 1ef9 cb3d 645c f23d e2fd 00be f795 a4be
000003d0: 054d 78be 1431 f8bd a8f0 72be 6063 a13e
000003e0: e3f1 a0bd 181a 903e af7f a5be 975e 61be
000003f0: a048 8c3d 35b7 75be 58bd 0abe b49f 7e3e
-0.12007293 0.13469893 -0.07406053 0.16078573 -0.10748398 0.16448897 0.040302575 0.07791864
-0.049441632 0.25681615 0.099263206 -0.20132767 -0.0033184288 -0.27271596 0.15742058 0.08330208
0.112120025 0.11549459 -0.29381874 0.1339221 -0.11837708 0.2242371 0.010397445 0.15476426
0.0067340294 -0.4289105 0.0012223652 0.0040195608 0.14291528 -0.036256604 -0.045903467 -0.0664982
-0.22533974 0.0036466839 -0.19221073 -0.110733554 -0.29346555 0.023748524 0.29788435 -0.09377344
0.057470478 0.22020859 0.23437656 -0.038149603 0.23723646 -0.16250178 0.21455884 -0.04259718
0.14892542 -0.065332025 -0.03438708 0.123578474 0.25030822 0.35040036 -0.0017245882 -0.13151288
-0.10985228 -0.21419975 -0.08286437 -0.07806471 -0.17447765 -0.053405892 -0.095594004 -0.08344897
0.14535172 -0.020414798 -0.055652592 0.27946627 0.28488955 -0.12260031 0.21896061 0.123554416
0.14416799 0.16386116 -0.08630463 -0.25332215 0.025344614 0.037410073 -0.03418217 -0.57458293
-0.039610248 -0.03860816 0.5434195 0.033066407 -0.1907801 0.0548626 0.19555219 0.04251201
0.029964011 0.29822716 -0.0061486573 0.151693 -0.06203432 0.10944821 -0.06674284 -0.2999878
-0.14104909 -0.1199557 -0.07060968 -0.10283639 -0.08645335 0.13010804 -0.17111541 -0.18013178
-0.2461827 -0.21073578 -0.29892465 -0.3168414 -0.12614061 -0.12323065 -0.11152382 -0.1470491
-0.256796 -0.023914421 0.042031936 0.039092023 0.05459874 0.26888305 -0.078723654 -0.16254838
-0.2521334 -0.15974091 0.13420624 0.07436402 0.023170067 -0.0105425855 0.13551328 0.028219055
0.015826954 -0.10720602 0.08081931 -0.27114195 0.030979179 0.055118278 0.046064757 -0.113424614
-0.20924194 -0.010866482 -0.23603444 -0.40168542 0.059665475 -0.10171605 -0.02661169 0.23843421
0.18656053 0.21128385 0.06552289 -0.17222223 0.016563123 0.20834571 -0.06711396 -0.11195365
-0.21389537 -0.083666034 0.09641755 -0.15757501 0.16708425 0.08038764 0.1346563 -0.071573086
0.2351035 0.047519445 -0.16685376 0.22136068 -0.22296442 -0.091516174 0.39527243 0.31141892
-0.025619077 0.16770427 0.13348234 0.04175 -0.04432528 -0.2224432 -0.26313108 0.18633118
-0.14935264 -0.037585273 -0.145227 -0.13180746 0.29387122 0.3303545 -0.18053925 -0.22039565
-0.029455796 0.014046394 -0.23567086 -0.031386547 0.013205519 0.033993907 -0.16463585 0.015466877
0.12161047 0.23596928 0.05150555 0.05575822 -0.34778318 0.005578467 -0.21839623 -0.18581435
0.17543401 -0.4276092 0.2075909 -0.24406248 -0.05253558 0.010366227 0.062265422 -0.10167964
0.079587966 0.30430916 -0.33202335 -0.13757862 -0.007110499 0.038278386 -0.17020965 -0.03222641
0.042377263 -0.4020051 -0.0701241 -0.057479523 -0.32453898 0.039976574 0.041710183 0.38732508
0.19170743 0.15981686 0.042382456 0.14212891 0.0735188 0.16694285 -0.16379653 0.18173772
0.05215943 -0.120962135 -0.030468212 -0.18677408 0.2734903 0.024992444 0.006115966 0.24931249
0.09959625 0.11834028 -0.12596849 -0.32145664 -0.2424813 -0.12118736 -0.23724616 0.3152113
-0.07858636 0.28144908 -0.32323977 -0.2200874 0.068497896 -0.23995669 -0.13548791 0.2486561

gru.bias_ih_l0 f4 [192]
00000000: 2cf1 ed3d 9b31 7abc 86c0 1cbe 1c60 f9bc
00000010: beb5 fcbd 8dfa 13bd a6fd 323e 8910 873c
00000020: ebf7 56bd f2e1 0b3c 5a77 073e bee3 e23d
00000030: 1f78 e33d be98 1f3e 28db 7cbd cdd0 15be
00000040: 83c8 5abd 4aaa 58be 8fee 03bd c82c 563d
00000050: 4c4d 3abc 7a8d fa3d a661 9ebd 15fe bdbd
00000060: 0f95 353e a8c7 1d3e 74de 083e 59d5 dfbb
00000070: e65c 8bbc 53aa 88be e1a1 f63d f57d c3bd
00000080: c884 20bd 67f4 213e fd4c c9bd 6798 4bbe
00000090: c0ea 1abe bcb1 70bd 6a0a c33d c678 a5bd
000000a0: e3ca 973e 2051 c23b ca67 443d 6999 2a3e
000000b0: 882d 1f3e f76d 0bbe bb05 18bd fce9 d23c
000000c0: d802 4fbd 1cb0 623e ada3 2f3d 7cba 52bd
000000d0: 9371 323e 5f92 2c3e b666 353c 8819 6bbc
000000e0: 821e 8f3c 9219 113e 19f8 09be 1c09 183e
000000f0: e6b3 cc3c 62e6 033e 19b9 c03d 9937 b4bd
00000100: e4f7 873e d035 7fbe c11a 903b 877d c03d
00000110: 0dc0 033b 0fdc be3d c3c7 1dbe a496 3f3e
00000120: 977c 0dbe 532b 133d 366b 51bd 0b55 7d3e
00000130: 537b 2d3e 8dc1 853e 8188 3fbe 5dd4 2cbd
00000140: b565 c0bd e9ad c3bd ed94 513e d2ff 23bd
00000150: 4187 2dbd be57 10be a008 723d a58b b53d
00000160: c7aa 1a3e 31ed a13e 3297 e4bd f573 633d
00000170: c137 2f3e 8a20 51be a674 bb3d 6467 3c3d
00000180: 4852 babd 7a06 c0bd 407c 7f3b 1b6c 9dbd
00000190: c9c0 883e 1fe6 453d e20a 433d af7a 9ebd
000001a0: b63e 143e 931b 933d e82e c6bc 65cc aa3e
000001b0: 6010 053f 726e 483d 9605 a53e 5742 7a3c
000001c0: 47b9 663e 4a40 223d 1dbd 7bbe 1e21 f13d
000001d0: d003 9e3e 91ba 853e 2d72 7cbd 21b9 b83d
000001e0: 24e9 c0bc 4586 043e 08e4 84be 48d8 17be
000001f0: 7388 4ebc 88f1 6cbb bad8 d23e d9da d93d
00000200: 1130 34bd ed01 f7bd b7b7 c8ba 4df1 553d
00000210: ca61 1f3d 4322 943d 8651 043b f33e bf3d
00000220: 2691 5d3d 3893 a1bc e794 7a3b f241 4ebe
00000230: 8f09 1fbd 53c1 d6bc 2110 a03d f441 883d
00000240: 242c 79bc 09cf 2ebd 49a0 493d 7521 bfbd
00000250: 05a7 12bc af89 1ebe 30ac f23d 36b3 a23d
00000260: a432 6c3d cafa a93d 6118 d73b a2b3 8c3d
00000270: cfc7 2b3d 1e92 a9bc 7f04 0abc c17c 50bd
00000280: e1cc dabd 72b5 0ebe f25d b73d ff1d a2bd
00000290: 61d8 c4bc 2a7d ea3d d1d3 663d 9b84 7e3c
000002a0: f9ae 92bc 4fce 313d 803d 3dbd 1553 05be
000002b0: 5878 743c 65c8 e1bd b808 0c3e ed92 9abd
000002c0: cc81 9fbd 9551 883c 76fc e53d a30e 413d
000002d0: dd30 8cbd ee18 0c3d e7fe fb3d 4079 86bc
000002e0: 5f49 a03d f8e3 a2bc 9fe2 e43d d7d1 473e
000002f0: 2b37 89bc a765 dabc 0ad6 8a3b 7f54 bbbd
0.116182655 -0.015270616 -0.15307817 -0.030441336 -0.12339352 -0.036127616 0.17479572 0.016487377
-0.052482527 0.008537756 0.13229123 0.110785946 0.11106896 0.1558561 -0.06173244 -0.14630432
-0.05341388 -0.2115871 -0.03220993 0.0522888 -0.011370968 0.12234016 -0.07733469 -0.09276978
0.17732643 0.15408194 0.13366109 -0.006830853 -0.01701207 -0.26692447 0.12042595 -0.09545509
-0.03918913 0.15815888 -0.098291375 -0.19882356 -0.15128613 -0.05876325 0.09523471 -0.08079676
0.29646978 0.005930081 0.047950543 0.16660084 0.15544713 -0.13616167 -0.03711484 0.025746338
-0.05053982 0.22137493 0.042880703 -0.051447377 0.17426138 0.16852711 0.0110718515 -0.014349349
0.017470602 0.1416991 -0.13473548 0.14847225 0.024988126 0.12880853 0.094103046 -0.08799667
0.26556313 -0.24922872 0.0043977206 0.093989424 0.0020103485 0.093193166 -0.15408234 0.18709809
-0.13817059 0.03592999 -0.051127635 0.24739473 0.16941576 0.2612423 -0.18704416 -0.042194713
-0.09394399 -0.09554655 0.20466967 -0.04003889 -0.042365316 -0.14095971 0.059090257 0.08864526
0.15104209 0.31626275 -0.11161651 0.055530507 0.17111112 -0.20422569 0.09153108 0.04599704
-0.09097725 -0.09376235 0.003898397 -0.07686635 0.26709583 0.048315164 0.0476178 -0.07738244
0.14477047 0.07182994 -0.024192289 0.33359066 0.5197811 0.048933454 0.32230824 0.015274606
0.22531615 0.039612092 -0.2458386 0.11773895 0.30862284 0.261189 -0.061632324 0.090196855
-0.02354867 0.12941845 -0.25955224 -0.14828598 -0.012605774 -0.0036154706 0.41180974 0.10637445
-0.043991152 -0.12060914 -0.001531354 0.052232075 0.03891162 0.072330974 0.0020190193 0.093381785
0.054093502 -0.01972352 0.0038235725 -0.20142344 -0.038827475 -0.026215231 0.07815576 0.066532046
-0.015208278 -0.042677913 0.049225125 -0.09332553 -0.008950953 -0.1548221 0.118492484 0.07944338
0.057665482 0.08299787 0.0065641855 0.068702 0.0419386 -0.020699557 -0.0084239235 -0.050900225
-0.10683609 -0.13936403 0.089534655 -0.079158776 -0.024028959 0.114496544 0.056354348 0.015534545
-0.0179057 0.04340964 -0.04620123 -0.13019975 0.01492127 -0.1102455 0.13675201 -0.07547555
-0.07788429 0.016640464 0.11229794 0.0471331 -0.068452574 0.034203462 0.12304478 -0.016415238
0.078264944 -0.019884095 0.11176037 0.19513641 -0.016749939 -0.0266598 0.004236941 -0.09146976

gru.bias_hh_l0 f4 [192]
00000000: 4ece 423e ec39 f03d a745 02be d4a9 af3c
00000010: ee05 8c3d 57b9 b6bd 09f9 f93d 7142 cf3d
00000020: 6481 6a3d bdbc a13d ba09 aabc 26fe 7bbd
00000030: 6877 183e f70c 593c ac0a 57bd 8a8a c0bd
00000040: 944b 40bd 325c 3ebe 4a84 193d 1a5a f63c
00000050: 8917 543e 984a b83c a9d6 653d e7a0 82be
00000060: 157e 323e d543 723d c622 b5bd cbbd e93d
00000070: 2520 66be ee1e 89bd ae4f 643d 9c3c c8bd
00000080: d8b7 90bc 185e 623e f7ec 60bd 5613 08be
00000090: d596 3ebe ba88 08be 7ae2 0e3e be0d 48bd
000000a0: c095 433e 3873 c1bd 2928 cbbd 4a15 ab3d
000000b0: 2003 393e 2aec 67bd e5b4 263e 0d49 84bd
000000c0: a91d 75bd 9988 773d 229c 87bd 9344 c53c
000000d0: 0f76 1e3e 2681 113e 5d2b 14bd fe11 063e
000000e0: 6111 08be 1b83 5d3e db72 093d 2260 c3bc
000000f0: 8b4b 60bd 9a01 653e 4779 f93b c97d 72bd
00000100: 5967 2d3e 9ddc 42be c3db 15be b44b bd3d
00000110: 20bd 1b3d 80dc f63c c589 5dbe ad2a 013e
00000120: 2aae b5bd 8876 c03c 6055 2cbe cd03 453e
00000130: 9182 c53c 8f20 3b3e 4a82 59be 471a e53c
00000140: 744c 7e3c 31cb b83b 241e ba3e a49f aebd
00000150: 069a 59bd 7768 dabd bb40 633d e52e 2abc
00000160: 7796 0c3e 1534 153e c487 7ebe 9810 ee3c
00000170: d5dc 603e 84fd a1be 1ac6 713e 6034 94bc
00000180: a570 d3bd 7bd9 15be 400c 8f3d 58d1 86bd
00000190: 0cae 473e b650 683c cc61 e63d 74b1 2e3d
000001a0: a4a9 8b3d 4dd4 e83d efd7 d13d 6b16 a53e
000001b0: 1e9e f13e 9d28 cd3d 84b8 393e 6adf abbd
000001c0: 51eb d33e e197 ed3d 6164 7dbe ff5d d33c
000001d0: a58d a93e bb88 ed3e 5800 f03d eac7 9f3d
000001e0: 5bd5 c3bd a6c7 bc3d 1a0e 8abe a935 39bd
000001f0: 1689 193e 12c4 bdb8 4fa1 753e 338d f1bd
00000200: 675b 9dbd f364 6ebd b18b 7d3d 25ba 8fbd
00000210: 2a95 10be afb9 37bd bad6 0ebc c158 ef3c
00000220: 680b 663d c141 a13d 5b1d 893d 8fc4 26be
00000230: 630f b6bc f4f7 16be 33ec 883b c6c1 82bc
00000240: 064c c83c ead2 943d d422 df3d 0867 b6b8
00000250: 6618 52bd 72ad b8bd 748d 123d 64b2 acbd
00000260: 61a2 fe3d 99d9 59bd 2482 0cbd 958e debd
00000270: 766c 433d 9726 533d 32f4 9e3c 13db d6bc
00000280: 0748 293e 733e 18be 29b2 4d3d 3c64 df3d
00000290: c3c5 c3bd 5378 b1bd 1f93 b8bd 7e62 6a3d
000002a0: 58aa 7e3d a785 183e fbee 85bd 86d8 21bd
000002b0: 3966 30bb f022 2f3e 6d4b 4d3c 3c40 afba
000002c0: 8251 9a3c aefd 923d f1a5 3dbd ec5b 26bd
000002d0: 1490 28be b1a3 f53d 1097 323d 060a b43c
000002e0: 2f13 f3bc e35d e4bd 156a b0bc 1f74 103d
000002f0: 7bcd a53d cc47 8e3d 4352 433e f3c1 3ebe
0.19024011 0.11729798 -0.12721883 0.021443285 0.068370685 -0.089220695 0.12205703 0.101200946
0.057252303 0.07897327 -0.020756591 -0.06152167 0.148893 0.01324772 -0.052500412 -0.09401424
-0.046947077 -0.18589857 0.037479676 0.03007226 0.20712103 0.022496507 0.05611292 -0.25513384
0.17430909 0.05914672 -0.08844523 0.11413153 -0.224732 -0.066953525 0.05574005 -0.09777185
-0.017665789 0.22106206 -0.054913487 -0.13288626 -0.18612225 -0.13333407 0.13953581 -0.04884123
0.19100094 -0.09445804 -0.09919769 0.0835367 0.18067598 -0.056621708 0.16279943 -0.06459246
-0.05984274 0.060433004 -0.06621577 0.02408055 0.15474723 0.14209422 -0.036174167 0.13092801
-0.1328788 0.21632044 0.0335568 -0.02384955 -0.054759543 0.22363892 0.0076133343 -0.05920199
0.16933955 -0.1902947 -0.14634614 0.09242955 0.03802216 0.03013444 -0.21634586 0.12613936
-0.0887111 0.02349402 -0.16829443 0.19239731 0.02411011 0.18274139 -0.21241108 0.027966632
0.0155211575 0.0056394567 0.3635112 -0.08526543 -0.053125404 -0.10664456 0.055481654 -0.010387157
0.13729273 0.14570649 -0.24856478 0.029060647 0.2195924 -0.3163873 0.23610726 -0.01809138
-0.103242196 -0.14633743 0.069847584 -0.06582898 0.19499987 0.014179399 0.11249122 0.0426497
0.06819466 0.11368618 0.10246264 0.32243666 0.47190946 0.10017512 0.18136793 -0.08392222
0.4139047 0.11601234 -0.24745323 0.025801657 0.3311588 0.4639338 0.117188156 0.078018025
-0.09562179 0.092177674 -0.26963884 -0.04521719 0.149937 -9.048743e-05 0.23987316 -0.1179451
-0.07683449 -0.05820174 0.0619008 -0.07017926 -0.14119402 -0.044854816 -0.008718187 0.029217126
0.05616322 0.0787387 0.06695052 -0.16285919 -0.022224134 -0.14743024 0.0041785478 -0.015961539
0.024450313 0.07266791 0.10895315 -8.697627e-05 -0.0512928 -0.09017457 0.03577943 -0.08432463
0.12433315 -0.053186033 -0.0343038 -0.10867039 0.04771086 0.051550474 0.01940355 -0.02622751
0.16531383 -0.14867572 0.050218735 0.1090779 -0.095592044 -0.08665528 -0.09012436 0.057222836
0.06217417 0.14894734 -0.065397225 -0.039513133 -0.0026916398 0.17103171 0.01253019 -0.0013370584
0.018837694 0.07177292 -0.046300832 -0.040615007 -0.16461211 0.11994112 0.043601096 0.021977436
-0.029672233 -0.1115072 -0.021534959 0.03526699 0.08095833 0.06947288 0.19074349 -0.18628673

fc.weight f4 [64, 65]
00000000: cfc6 57bc 433f 013e 8b59 9a3d 89b8 66bd
00000010: 0ea0 5ebd 72f0 a83b b551 05be 905e a4bd
00000020: 7e1a a63d 53f8 b83c 00ef 143d afc5 13be
00000030: 8aa6 e0bc 757e e13d ca1a 013e 1038 b5bc
00000040: dc48 8abd 8813 083e 693d 84bc 3887 0e3e
00000050: 79a5 ff3c 286f 1a3e c1a2 503c 114c 74bd
00000060: f619 ccbc 6910 66bc 26a6 093d 2eb5 9a3d
00000070: 02a5 8c3d c7b5 a4bc dceb bd3d 3526 cabd
00000080: f487 843d ce7a 0b3e 519a b83d 699d 0e3e
00000090: a8da aa3d 5136 553c 23bb 0b3d 91fb 36bd
000000a0: 2eac dabd f862 08bc e8ce 88bd 0d98 adbd
000000b0: 50ea ffbd 7a9c fe3b 27d6 253c e791 77bd
000000c0: 38a5 943d 7af7 a6bd 7ad9 efbd eee3 f0bc
000000d0: 1be5 d1bd 38ec 863c 7138 64bd 9b3d 09bd
000000e0: fd86 80bc 1f56 88bd 8ee3 f7bd d8f2 b83c
000000f0: e45a 83bd d39c e3bd 55d0 9bbc 70ad 84bd
00000100: 95ab 27bd c757 733e d568 813d 7581 77bd
00000110: ec6d 18bc ce8c 69bb a191 0e3b 5523 e5bc
00000120: 996e 58bd b809 263d 0fe6 933d 4cbb e6bc
00000130: 48e3 ad3d a71e 5fbd e8b6 d1bd 4f26 dd3d
00000140: 74a5 66bd 4519 283d ffe0 923c b401 02be
00000150: 13f6 fa3c 8075 133c 91fe 333d 23ed 0d3a
00000160: c986 66bb 62ed b3bd 5eea 6cbd c0e4 f6bc
00000170: 8c16 643c 42fb 7f3c f394 37be ccfb ef3c
00000180: 6b0d 99bd 6b67 db3c 0309 793d 5d6d f83b
00000190: 5c00 95bd af8d 003d 304f e0bb 2cda 063e
000001a0: 9fad 86bc 3589 c0bd 6e27 2fbe 6364 48bd
000001b0: 07d2 9bbd d691 4f3e 77f0 83bc 5bb1 1e3e
000001c0: 154f 81bd 7a8e 5bbe fe81 53be d0c4 13be
000001d0: 511a 84bd 3eb5 3b3e 8983 2b3e 7778 b33d
000001e0: 13ae 5fbc 5029 b4bd 2463 b03c 88e3 0dbe
000001f0: 7749 bbbd 9f64 d03d 9e41 aebd faeb 753c
00000200: 2870 2d3e ef41 c33e d9e8 213d caa8 97bd
00000210: 2174 e33d 1112 5dbc 9e11 3c3d c21b f13d
00000220: 24a8 63bd 630f 45bd ff24 3ebd e437 ab3d
00000230: a0af 373d 41ad 4e3c ba3a c63d 92d2 9b3d
00000240: 2599 a9bd 48de 62bd d51c 5fbc 30b7 7d3d
00000250: fdb8 bcbd 8459 c2b8 ee3e 433d a32c 953c
00000260: 1ff9 a0bd 22a8 e23d 9d0a 0e3c bd25 bebd
00000270: c40d 2fbd 535c 5fbc d070 d9bc cc82 803d
00000280: d292 573d 36c2 8dbd fdac 893d f9a6 a73d
00000290: a41a e5bc 757c 813d 4662 fabd 9d0b df3c
000002a0: 0829 c8bd 6884 9a3d 39ad 1bbd 7ed9 ed3d
000002b0: a1a9 7d3b 55ad 85bd 71f2 9e3d a7aa c0bd
000002c0: fa25 bbbd dd19 8b3d 908e 493d b0e9 05be
000002d0: a153 893d 76f6 6cbd 1e84 553d 710c cbbd
000002e0: d6ca a1bd c483 90bc 9cfc 83bd ffb8 873d
000002f0: 051c 74bd ec62 803d 661d db3d bd6a ebbd
00000300: 16fb 3bbd 4cdc 03bd 1f9e 673c c917 aebc
00000310: 51e6 743e 7f05 883d a04c 33bd 1c1e 923d
00000320: 9890 503d 6d49 b33d 2661 00be 6318 bebb
00000330: d76c 263d 9180 5ebd 7681 b6bd 2c5c d2bd
00000340: 2453 64bd bb4f 21be 7d8d e43d 9dae 463e
00000350: fe99 3b3e 0bf9 debd d2a3 4ebd 2e28 9fbb
00000360: 8c15 95bd 1b7a 73bd 3c33 70bd c20c 3d3d
00000370: 8593 103e d448 ba3d 7f53 bc3d 44a1 893d
00000380: 3b39 4abd 689a abbc 9f08 9bbc 8fa6 cb3d
00000390: 2f6f c1bd 940c e2bd 39c4 093e 082c baba
000003a0: 4029 edbd 1fde 32bb f1a7 33be 9aca 55bd
000003b0: 0888 76bd 4076 90bd 3bda 313e 33dd 213e
000003c0: fee2 e6bd 5830 65bc 4bbc 333e 91af efbd
000003d0: 49ea c2bd 6878 17be eebb 1d3c 50ef ac3c
000003e0: 7f73 2dbd 937d 51bd bff5 d43d 5806 f1bc
000003f0: 7a7b 3b3e 76ce a1bd 82f7 d8bd 8789 cd3d
-0.013169958 0.12621789 0.0753661 -0.05632833 -0.05435186 0.0051556164 -0.1301945 -0.08025849
0.08110522 0.022579348 0.03636074 -0.14430879 -0.027423162 0.11010448 0.12607875 -0.02212146
-0.06752178 0.132887 -0.016142564 0.1391877 0.031206833 0.15081465 0.012734116 -0.059642855
-0.024914723 -0.014041998 0.033605717 0.075540885 0.0686741 -0.02010621 0.09273502 -0.09870569
0.064712435 0.13621065 0.090138085 0.13927235 0.083424866 0.013013438 0.034114014 -0.044673506
-0.10677372 -0.008324377 -0.06680089 -0.08476267 -0.124958634 0.0077701183 0.010121859 -0.060441878
0.072580755 -0.08152671 -0.11711402 -0.02940556 -0.102487765 0.01647006 -0.05571789 -0.033506017
-0.015689367 -0.06657051 -0.121039495 0.022576734 -0.064138204 -0.11113896 -0.019020239 -0.06478393
-0.040935118 0.23763953 0.06318823 -0.060426194 -0.009303551 -0.0035636905 0.0021754282 -0.02797095
-0.05283985 0.040536612 0.072216146 -0.028165482 0.08490616 -0.05447259 -0.10239965 0.107983224
-0.056310132 0.041039724 0.017929552 -0.12695962 0.030634915 0.009000182 0.043943945 0.0005414059
-0.0035175553 -0.087855116 -0.057840697 -0.030138373 0.013921391 0.015623869 -0.17927913 0.02929487
-0.074732624 0.026782712 0.06079961 0.0075813965 -0.07275459 0.03138512 -0.0068453774 0.13169163
-0.01644021 -0.0940117 -0.17104885 -0.04892386 -0.07608419 0.20270476 -0.016105874 0.15497343
-0.06313912 -0.21441069 -0.20655057 -0.14430547 -0.06450332 0.18330857 0.16749395 0.08763211
-0.013652342 -0.08796942 0.021531649 -0.13856328 -0.09144872 0.10175442 -0.08508609 0.0150098745
0.16937315 0.3813624 0.0395287 -0.07405241 0.11106134 -0.013493077 0.04591524 0.117728725
-0.055580273 -0.048110377 -0.046422 0.0836027 0.044845223 0.012614549 0.0967917 0.076085225
-0.08281163 -0.055387765 -0.013617714 0.06194228 -0.09214971 -9.2673145e-05 0.047667436 0.018209761
-0.07860016 0.11067225 0.008669523 -0.09284542 -0.042737737 -0.013632852 -0.026543051 0.062749475
0.052630253 -0.069218084 0.06722448 0.081861444 -0.027966805 0.063225664 -0.122257754 0.027227217
-0.09773451 0.07544786 -0.038006995 0.11613749 0.0038705843 -0.06527201 0.07761086 -0.09407549
-0.09138103 0.067920424 0.049208224 -0.13077426 0.06705404 -0.05785223 0.05212795 -0.099144824
-0.07900016 -0.017640956 -0.06444666 0.06627082 -0.059597034 0.06268868 0.10698967 -0.11494968
-0.04589375 -0.032192513 0.01413682 -0.021251576 0.23915984 0.06641673 -0.043774247 0.07134649
0.050919145 0.08754239 -0.12537059 -0.005801247 0.04063114 -0.05432183 -0.089114115 -0.10271487
-0.05574335 -0.15753071 0.11159799 0.19402547 0.18320462 -0.10887345 -0.0504492 -0.0048570847
-0.072795 -0.05944262 -0.05864261 0.046154745 0.14118774 0.09095922 0.09195613 0.06720212
-0.049370985 -0.02094765 -0.01892501 0.09943878 -0.09445035 -0.11037555 0.13453759 -0.0014203796
-0.115801334 -0.002729304 -0.17544533 -0.05219517 -0.060188323 -0.070538044 0.17368405 0.15807037
-0.11273764 -0.013988577 0.17552297 -0.117034085 -0.095173426 -0.14792025 0.009627325 0.021110207
-0.042346474 -0.051145148 0.10398435 -0.02942197 0.18308821 -0.079007074 -0.10594083 0.10035997

fc.bias f4 [64]
00000000: 9ebe 58bd 5508 b1bc 27ed 2d3c 88c0 1dbd
00000010: 3dda 063e 03ad c33d 98e9 83bd ec0b f3bd
00000020: 9c05 d83d 6f30 f1bd 7a31 e4bd de2f fdbc
00000030: 4889 adbc 9336 7c3d 920f 5b3e 8e12 db3d
00000040: 6094 d53d c1f5 f6bc 4902 08be 441c 23be
00000050: a7c8 06be f353 713d bae5 57be db2a d53d
00000060: dcb1 cabd 4e9a 08be 5371 183d 3a13 1f3e
00000070: b535 253e 3e8b d73c e45e 883d b842 e2bd
00000080: 2de2 c53d f14f f7bd 7d88 153e 26fd 5b3e
00000090: 9ed7 bd3c f524 1d3d 60f1 db3d 5760 86bd
000000a0: 7d1c 563d 4862 22bd 3432 053d e336 233b
000000b0: 4a96 12bd 9cbf 8cbb 6a4d 86bd 2f8a 1b3e
000000c0: 1c88 4b3e a2b7 843d 1161 7fbd 8ea0 98bc
000000d0: 91dc e9bd ed3d 1ebd cc9d cfbd d602 cb3d
000000e0: fd0e 7fbb da78 113c fd36 d43c 3355 19be
000000f0: 6e11 cabd 6e43 57be 70a8 123d 2e84 9b3d
-0.05291616 -0.021610418 0.010615624 -0.03851369 0.13169189 0.09554484 -0.06441039 -0.11867508
0.10547945 -0.11776816 -0.111422494 -0.030906614 -0.021183625 0.061575484 0.21392658 0.106968984
0.10428691 -0.030146481 -0.13282122 -0.15928751 -0.1316248 0.05891795 -0.21083727 0.10408565
-0.09897205 -0.13340113 0.03721745 0.15534678 0.16133769 0.026311513 0.06658724 -0.11047882
0.0966228 -0.120757945 0.14602847 0.21483287 0.023174103 0.038365323 0.10739398 -0.06561344
0.052273262 -0.03964451 0.03251858 0.0024904541 -0.035787858 -0.0042953026 -0.06557734 0.15189432
0.1987614 0.06480338 -0.06234843 -0.018631246 -0.11419023 -0.038633276 -0.10137519 0.0991265
-0.0038918846 0.008878911 0.025905127 -0.14973907 -0.09866606 -0.21021816 0.035805166 0.07593571

fc2.weight f4 [3, 64]
00000000: 6157 993d 1d15 4abe b12d d8bd a4b9 02bd
00000010: 40d1 89bf 00c2 c7bd b2c1 6dbd c31b aebc
00000020: 994d 693f 34ec b1bd 0053 16bd cd81 5b3e
00000030: d488 36bc 3f04 613e 851f e1bd 1190 1c3e
00000040: f548 cfbd 0349 f2bd 6e09 df3e cea9 e73e
00000050: 161a b0be 0f98 8d3d 8cbc 8f3e 18f8 8abe
00000060: f598 b6bd eaad 3abd 7288 4cbd 9e71 25bf
00000070: 5888 28c0 1d5b 0c3f 2f50 883d 9f74 8cbc
00000080: 748e 28c0 73ef e73d 23b3 a2bf b1fd 64be
00000090: c3cd c2bd ddbf 673e e163 393f ea10 a03d
000000a0: d4ee e83c 4fed f63b 5a5c bd3d 871a 563e
000000b0: 2cfd fb3d 9baf d43d 47a8 b93c b7f0 1dc0
000000c0: ded3 1fbf 8091 083e 13ac 80bd 91bd 4dbe
000000d0: bb5f 09bc 2beb 6a3e 1280 95bd 9fd5 963d
000000e0: 09f3 3d3d 9ee9 443e 942e 3bbd accf 77be
000000f0: a25e 95be 0cb6 093f 8227 b8bd d7fb 2e3d
00000100: 9a45 de3c a4e2 d33e 5304 e63d c115 67be
00000110: f80e 47bd 0e3a 3c3d 5a93 e2bd cf97 88be
00000120: a41f 963e f76e af3d 186c 43bd 7837 1ebe
00000130: ae79 173d d977 abbc 4956 1840 1520 c8bd
00000140: e02f d93d 74b2 29be dc09 893c 36aa c23e
00000150: 0ba7 f03c bcd0 acbd 0ccf 823e 64de 093e
00000160: d444 fbbd 4145 07bd b88a 3340 bf86 95be
00000170: 442f ef3f 061b f53f 6e28 25be 1fdb 9d3d
00000180: a038 0440 4a41 24bd d9ef 583d d7e4 2f40
00000190: dfa2 0bbe 95ee 2c40 f94e 883e 08d5 bebe
000001a0: 3241 42be 3f99 8fbd 38bb adbf 4ff4 9fbe
000001b0: 7b1c 43be a97f 473d 7829 d03c 0645 de3f
000001c0: 190f 403e f1af fabf a16a 68bd 89c4 b33e
000001d0: f688 bd3d f41c 9c3d 1a30 573b 63b8 9bbd
000001e0: e963 3fbe 08a7 aebf d766 dabf 0337 4fbe
000001f0: 9f36 813f cfd7 44bf 1eb6 b3bd ec46 b5bd
00000200: d130 513c 10bb 4ebe a7ae c03d 4a75 c23d
00000210: 2b55 753f ef90 20bd c40c cc3b e33a 703e
00000220: f16c 05c0 b4a6 aabd 573c a9bd cc1e 79bd
00000230: b83d e43c 2bb2 52be ab7c 3dc0 a0be 8fbc
00000240: e522 75bd 0cc8 983e 3b4c 58bf 7b33 b6bf
00000250: d9fa ea3e bfe7 b4bc d5f6 59bf 24f4 5e3e
00000260: 940a be3d 59f8 83bc 6f2d 5cc0 1f32 393f
00000270: 5af1 c73e b861 5fc0 8a2b 49bc b489 413c
00000280: 81d8 a53e 2532 283e c4d1 6d3f 7e24 67c0
00000290: 9d32 543e c792 78c0 c85d 0ac0 1505 353e
000002a0: ec35 b33a 16e2 903d 6ab8 3f3e 87b4 b83d
000002b0: 3051 973d b2c2 b5bd 28f5 04bd 931b c13e
000002c0: 8819 d93e 2524 cc3e a7da c9bc 9b2e a5be
000002d0: af4b 9b3d 947c afbe 76f7 483c 95a4 bdbd
000002e0: aa52 fd3d 34ba 383e 524a fe3e 5320 bf3e
000002f0: 0515 87be 54a0 38bd 117b 82bd 0d34 6e3d
0.07487369 -0.19734617 -0.1055559 -0.031915322 -1.0766983 -0.097537994 -0.05804605 -0.021253472
0.9113403 -0.0868763 -0.03670025 0.21436234 -0.011141021 0.21974276 -0.1099234 0.15289332
-0.10121337 -0.11830332 0.43561882 0.45246738 -0.34394902 0.069137685 0.28073537 -0.27142406
-0.08915893 -0.045576014 -0.049934812 -0.6462649 -2.6333218 0.5482653 0.06655919 -0.017145453
-2.6336946 0.11324968 -1.2710918 -0.223624 -0.09511902 0.22631784 0.7241803 0.07815726
0.028434195 0.0075356136 0.0924613 0.20908557 0.12304148 0.103850566 0.022663249 -2.467817
-0.6243266 0.13336754 -0.062828206 -0.20091845 -0.00838464 0.22941272 -0.07299818 0.07364964
0.046374355 0.19229743 -0.045698717 -0.24200314 -0.29173762 0.53793406 -0.089919105 0.042720642
0.027132798 0.4138385 0.112312935 -0.22566892 -0.04859826 0.045953803 -0.11063261 -0.2667832
0.29321015 0.08566087 -0.047710508 -0.15450847 0.036981277 -0.020931171 2.3802664 -0.09771744
0.106048346 -0.1657198 0.016728334 0.38020486 0.029376527 -0.084382504 0.2554859 0.13463742
-0.12268987 -0.03302503 2.8053417 -0.29204366 1.8686299 1.9148872 -0.16128704 0.0770781
2.065956 -0.040101327 0.05296311 2.7483423 -0.13636349 2.702062 0.2662275 -0.37271905
-0.18970183 -0.07011651 -1.357276 -0.3124108 -0.19053833 0.04870573 0.025410399 1.7364814
0.1875576 -1.9584943 -0.056742314 0.35110882 0.09254639 0.0762271 0.0032835067 -0.07603528
-0.18690456 -1.3644724 -1.7062634 -0.20235829 1.0094794 -0.768918 -0.087749705 -0.08851418
0.012767986 -0.20188546 0.09408312 0.09495027 0.9583308 -0.03920072 0.0062271077 0.23459964
-2.0847743 -0.08332577 -0.08263462 -0.060820386 0.027861461 -0.20575778 -2.9607341 -0.017546952
-0.05984773 0.29840124 -0.8449132 -1.423446 0.45894507 -0.022083161 -0.8514226 0.2177282
0.09279361 -0.016109632 -3.440273 0.72342104 0.39051324 -3.4903393 -0.012278447 0.011812616
0.32391742 0.16425379 0.928982 -3.6116023 0.20722432 -3.8839586 -2.161974 0.1767772
0.0013672686 0.070743725 0.18722692 0.09018808 0.07388532 -0.08875026 -0.03246036 0.3771635
0.4240229 0.39871326 -0.024640394 -0.3226212 0.07582795 -0.34274733 0.012266031 -0.09259907
0.123692825 0.18039781 0.49666077 0.3732935 -0.26383224 -0.045074776 -0.06371129 0.05815511

fc2.bias f4 [3]
00000000: e0b7 de3c 0c28 223d 796d 2dbb
0.027187288 0.039588973 -0.0026462956
