predictor/nonsus.pt (torch, 452809 bytes, 9 tensors)

embedding.weight f4 [2788, 32]
000000 af e5 5c 3f 6b e8 51 3f 7f 32 37 bf 48 3f fc 3e
       0.8628797 0.81995267 -0.71561426 0.4926703
000010 a0 7b 2a 3f 3c c9 fc 3e 2e 9d 60 3f a8 5a 2d 3f
       0.66594887 0.4937228 0.8773984 0.67716455
000020 ea 79 eb be a9 71 fe 3c 55 40 56 bf 93 e8 b1 bf
       -0.4599145 0.031060057 -0.8369191 -1.3899101
000030 e2 0b 5f bd d4 71 ae 3e 88 b7 9f bc a3 cd 8f 3d
       -0.05445469 0.3407122 -0.019496694 0.07021644
000040 e3 80 3d bf da 6a 2e bf ca 2d 57 bf e7 37 5e bf
       -0.7402479 -0.6813179 -0.84054244 -0.8680405
000050 ff a6 2b bf d2 fa 09 bf 61 8e dd be 78 cb 12 3f
       -0.6705169 -0.53898346 -0.4327269 0.5734172
000060 4a ff da be 2b db 1d 40 bc a9 85 bf 6b d5 db be
       -0.42772895 2.466502 -1.0442424 -0.42936262
000070 00 f2 d7 be 2c 04 09 3e e8 5c a7 bf aa 93 e3 3e
       -0.4217682 0.13380498 -1.3075228 0.44448596
000080 6c 38 51 bf cd 3b 31 3f 54 69 8e 3e 9a 52 44 3f
       -0.8172672 0.69231874 0.27814734 0.7668854
000090 d0 ed 5b 3f ad 41 8b 3f 2b 07 68 3e 22 ed 4d bf
       0.8590975 1.0879418 0.22658984 -0.8043996
0000a0 3f 8d 3b 3e b1 d2 90 3f 28 28 d4 3d 13 e9 3d 3f
       0.183156 1.1314298 0.10359222 0.7418377
0000b0 f4 68 4d 3e 10 46 d0 3d e1 b8 cf be 69 c7 2a be
       0.20059568 0.10169613 -0.4057074 -0.16677631
0000c0 6e b0 08 bf 99 b3 b3 be 72 8d 9f bf f8 7a 70 3f
       -0.5339421 -0.3509796 -1.2465041 0.93937635
0000d0 11 af 53 bf 3c fc e6 bc ee ef 9f 3f da e4 20 bf
       -0.82689005 -0.028196447 1.2495096 -0.628492
0000e0 7d 13 3f bf a1 a6 0c bf b3 89 19 3f 83 58 c1 3f
       -0.7463911 -0.54941756 0.5997574 1.5105137
0000f0 6a fd 20 3f 13 8a 42 3c ae d9 c0 bc 7f a1 aa be
       0.6288668 0.01187374 -0.023541298 -0.33326337
000100 43 88 2b 3c e0 10 77 be 99 ea 88 bd 18 dc 7a 3f
       0.010469499 -0.24127531 -0.06685371 0.97992086
000110 a4 44 d2 3f 6a a2 8b 3e a4 43 a5 be de 6a 0d 3f
       1.6427197 0.2727235 -0.32278168 0.5524119
000120 11 20 13 c0 26 6f 0d 3f d6 85 db 3e 12 fd c8 be
       -2.2988322 0.55247724 0.42875546 -0.39255577
000130 51 94 3a bf e0 82 68 bf 30 0c ad 3f 1a c4 d1 bf
       -0.7288256 -0.908247 1.3519344 -1.638797
000140 27 b4 0c be 79 de a9 3f 1c 2b 88 3f 93 83 55 3e
       -0.13740598 1.3271018 1.0638156 0.20850973
000150 70 dc 01 3e 23 cd 13 3f 9f 4f 7a bf 0e 38 ee 3e
       0.12681746 0.5773489 -0.9777774 0.4652714
000160 27 5e 2f 3e 3a 3d a1 3e ed 30 54 bd c4 25 d2 bf
       0.1712576 0.31492025 -0.05180447 -1.6417775
000170 fb fe 8d be 05 29 a4 bb fb af 70 be bf 07 25 be
       -0.27733597 -0.0050097727 -0.23504631 -0.16116236
000180 d7 c7 f1 3f 4f 13 3f bf 63 23 89 3f bf 2b ee be
       1.8889111 -0.7463884 1.0713924 -0.4651775
000190 07 67 af 3e a0 10 d7 be a5 64 e2 bd 7c f7 81 3f
       0.3425829 -0.4200487 -0.11054353 1.0153651
0001a0 9f 1e 06 bf b0 42 93 3f 5f 69 ad bd 1f 54 c9 bf
       -0.52390474 1.1504726 -0.084673636 -1.5728797
0001b0 84 ef 86 bf c1 82 01 40 43 87 44 bf 4e c1 86 bf
       -1.0541844 2.0236056 -0.76768893 -1.0527742
0001c0 41 df 7b 3e 8e 92 94 be 33 44 96 3d 6a 0e 9b bf
       0.24596883 -0.29018062 0.07337227 -1.2113774
0001d0 49 f4 e0 bd 1a 88 ae 3f 5b 1a 20 c0 0c 0e e0 be
       -0.10984094 1.3635285 -2.5016086 -0.43760717
0001e0 68 be 2d be 97 89 2c 3f 89 d2 84 bf f9 6f 85 3d
       -0.16967165 0.67397445 -1.037675 0.06515498
0001f0 02 7c 6e 3f 0d 44 9d bf 29 45 b9 3e 5b 8f 92 3f
       0.9315797 -1.2286392 0.36185578 1.1449999
000200 1d 19 74 3f a0 4a 1b c0 df f4 92 bd eb 54 dc 3e
       0.9535082 -2.4264297 -0.07175612 0.43033537
000210 9b ba 45 3e 11 70 46 3f a8 c7 5c bf 39 14 ab bd
       0.19309466 0.7751475 -0.8624215 -0.083534665
000220 3c 3a a8 bf e2 f4 cd bc 5b a9 36 bf ac ad 1d bf
       -1.3142772 -0.025141183 -0.71352166 -0.6159313
000230 bf fb b7 3e 2a d4 25 bf 96 62 2b 3f de bb 88 3f
       0.35934255 -0.6477686 0.66947305 1.0682333
000240 00 5a b1 3f cb 52 93 3f 8e cc 54 3f 89 c8 de 3e
       1.3855591 1.1509641 0.83124626 0.4351237
000250 4c 32 71 bf 03 7c 4c bf 1a ee 22 3f 13 39 ec bf
       -0.9421737 -0.79876727 0.63644564 -1.8454918
000260 13 78 57 3e 0f a1 18 3f 4e d2 15 bf e8 be 5f bf
       0.21041898 0.59620756 -0.58524024 -0.87400675
000270 15 46 0b 40 e0 10 a7 bf 05 e4 a9 3e 33 b6 a6 3e
       2.1761525 -1.3052025 0.33181778 0.32560882
000280 d1 65 df 3e 75 14 e4 3e 02 88 8c 3f 69 b6 d1 be
       0.43632367 0.44546857 1.0979006 -0.4095948
000290 43 f9 62 3f 01 86 d7 3d ae 02 48 be d2 34 7e 3f
       0.88661593 0.10523606 -0.19532272 0.9929935
0002a0 af 83 f2 bf 1e 75 6a bf da 65 a4 3f d7 1d 81 3f
       -1.8946437 -0.91584957 1.2843583 1.0087231
0002b0 88 05 ec 3d 2e c7 87 bf a4 25 46 3f 45 03 bc bd
       0.115244925 -1.060766 0.77401185 -0.09180311
0002c0 a3 29 ba 3e b1 25 11 3f cb 3f 5f 3e 1a b5 97 3e
       0.3635989 0.5669814 0.21801679 0.29630357
0002d0 0c bc 31 be f8 8c 1b be ab c0 56 bf 5a 51 83 bf
       -0.1735689 -0.15190494 -0.8388774 -1.0259202
0002e0 9d 95 2d 3f 30 79 6b 3f 72 a2 c3 3f a4 e3 88 3e
       0.67806417 0.9198179 1.5283949 0.26736176
0002f0 84 ab 18 be a5 21 1c 3c 4e 6f 05 be c8 04 91 be
       -0.14909178 0.009529506 -0.1303074 -0.2832396
000300 b4 92 e6 be d0 17 fd be 2d cf 9d 3f 84 97 61 bf
       -0.450338 -0.4943223 1.232885 -0.8812182
000310 5e ea 9e 3e 68 07 1b bf ae 19 a2 be bb 76 ce 3f
       0.31038183 -0.60558176 -0.31660217 1.6129984
000320 4e f7 b0 3f d8 ec 72 be 38 1e 7f 3f ee fc 97 3e
       1.3825471 -0.23723161 0.99655485 0.29685158
000330 a5 d5 f8 be 1a 3a b1 be b9 56 e1 be f5 58 4e be
       -0.48600498 -0.3461464 -0.44011477 -0.20151122
000340 2f 55 76 bf 34 33 dd 3e 27 c2 a2 3e 19 b4 92 be
       -0.9622373 0.43203127 0.3178875 -0.2865303
000350 e9 51 1d 3f ba 48 da 3e 53 03 87 bf 1e 95 bf 3f
       0.6145311 0.4263361 -1.054789 1.4967382
000360 a1 8e 0b c0 9d e2 50 3f f7 ec e3 bf 61 85 09 bf
       -2.1805804 0.81595784 -1.7806691 -0.53719145
000370 53 87 20 bf 88 80 7e 3f cd 56 65 be e5 db 8a 3d
       -0.6270649 0.99414873 -0.22396393 0.06780223
000380 b2 35 7e bc 1e 8f 7c bd 1c 9c 0b 40 48 be 52 bf
       -0.015515732 -0.061659925 2.1814032 -0.82321596
000390 0c 5d a1 be ac 2f 8b bf fe 88 24 bf f3 3f 85 3f
       -0.31516302 -1.0873923 -0.64271533 1.0410141
0003a0 4f 62 ad be 74 d8 e8 3e 7b 79 0f bf f4 43 da 3e
       -0.33864066 0.4547764 -0.5604474 0.4262997
0003b0 77 0f 71 bd 62 f2 45 3e 53 cf ab bf a5 79 9a bd
       -0.05885264 0.19330743 -1.3422645 -0.07542733
0003c0 a9 83 9d bf 54 94 15 40 a3 74 8e bf dd 6d 22 bd
       -1.2305804 2.3371782 -1.1129345 -0.039655555
0003d0 b7 0c 84 3f e3 ba 92 bc ef f7 78 bd 7f 5c 8e 3e
       1.031638 -0.01791138 -0.060783323 0.27804944
0003e0 73 cc 9e bd 70 2d 8d 3e d6 8c 2d 3f 3c 6d f3 3e
       -0.07753839 0.2757373 0.67793024 0.47544277
0003f0 82 c2 cd 3e 26 03 d9 bf b2 25 aa bf c5 1d a4 bc
       0.4018746 -1.6954086 -1.3292754 -0.020033726

gru.weight_ih_l0 f4 [192, 32]
000000 b3 08 28 be 46 ee 90 bd 7d 3c e6 3e 58 35 25 be
       -0.16409568 -0.07076697 0.44968024 -0.1613363
000010 e3 23 d2 3b b7 bc 0c bd bd 6d 0b be 2b ce 25 be
       0.0064129694 -0.03435966 -0.1361608 -0.16191928
000020 31 06 f7 bd 40 f8 97 3b 79 00 db bd 67 01 d4 bc
       -0.12061728 0.004637748 -0.106934495 -0.025879575
000030 cb b2 0a bd 7f 9f 42 be 68 01 2e 3d 82 79 80 3e
       -0.033861917 -0.19006155 0.04248181 0.25092703
000040 78 35 29 bd b7 d9 89 3c 4f ec f0 3d 8e da e1 3e
       -0.041310757 0.016827447 0.11763822 0.44112056
000050 bc e6 b4 3d 7c 4a b2 bd 7d 4c fc bd 5a 5a 28 be
       0.088330716 -0.08705613 -0.123192765 -0.16440716
000060 31 74 19 bd 8b 18 9a bd 66 8e 35 3d 79 d3 94 3d
       -0.037464324 -0.075242124 0.044325255 0.07266898
000070 bd 81 45 bd dc 5d 3c be 56 d7 a8 bc 96 d7 5d be
       -0.04821943 -0.1839518 -0.020610493 -0.21664271
000080 bb 9e 57 bd 3a 53 0e bd e4 84 ad 3d 28 e2 b1 bd
       -0.05264161 -0.03474734 0.084726125 -0.08685714
000090 a5 ee bd bd 96 9b d7 3c ed 7a 17 3c 2a 41 27 be
       -0.092740335 0.026319306 0.009245616 -0.16333452
0000a0 15 e1 38 3e d6 61 03 bd f3 f6 2b 3c 96 ef b1 3d
       0.18054612 -0.032075725 0.010495889 0.086882755
0000b0 c5 dc 07 3e 8c 67 89 3d f5 3d 52 bd fd d6 8a 3e
       0.1326781 0.06709203 -0.051328618 0.27117148
0000c0 98 40 88 3d 24 83 46 3d 3c 66 ee 3d e7 a8 8a be
       0.06652945 0.04846491 0.116405934 -0.27081987
0000d0 90 86 90 3e f4 c1 df bc a7 86 16 bd cf e5 ab be
       0.28227663 -0.027314164 -0.03674951 -0.33573768
0000e0 01 5d 02 3e d2 89 2e ba eb 16 44 3e a1 1d f1 3d
       0.1273079 -0.000665811 0.19149368 0.117732294
0000f0 4d 59 1d 3e 6c 6d 01 be f3 f5 2b 3e 58 30 de bd
       0.15366097 -0.12639397 0.16793041 -0.108490646
000100 d4 96 23 bc 7f dc 56 3e 22 ff 34 be b2 3a 31 bb
       -0.009984691 0.2098255 -0.1767545 -0.0027043042
000110 d5 86 16 3d 30 89 1b bd 55 10 18 3b 62 a2 9d bd
       0.03674968 -0.03797263 0.0023203094 -0.07696988
000120 9c 84 4b 3e 80 f6 30 3e 2e 97 1f be ed fd 73 be
       0.19874805 0.17281532 -0.15585014 -0.23827334
000130 2f 0f b1 bd 96 ac 87 bd 32 b4 92 be f8 03 e1 3d
       -0.08645474 -0.06624715 -0.28653103 0.10987085
000140 f6 5f 19 3c 9f 39 03 3e f5 ed 60 be 20 a8 1e 3d
       0.009361258 0.1281495 -0.21965773 0.038734555
000150 b6 cf 8f 3d 2c 7f 4b 3e 8a d2 66 be 66 af b9 bd
       0.070220396 0.19872731 -0.22541252 -0.09066658
000160 ed a6 fc bc 27 d9 08 be 64 76 c4 39 46 a7 07 3e
       -0.030841315 -0.13364087 0.0003747224 0.13247404
000170 a7 4b 14 3e 98 f4 00 3e f8 a9 ce 3d 5a dc 34 3d
       0.14481984 0.12593305 0.10091013 0.044155456
000180 1f a0 23 3e e1 ed 68 be d9 2d af 3d fa b6 5b be
       0.1597905 -0.22746994 0.085536666 -0.21456519
000190 16 3f 4e b9 42 2c 5f 3c 41 f6 41 be ad 42 50 be
       -0.00019669192 0.013621392 -0.18941595 -0.20337935
0001a0 43 7b 61 3e b8 c6 94 be e1 a1 5e 3e 43 9e c8 3d
       0.22019677 -0.2905786 0.2174144 0.09795811
0001b0 9c 5e e7 3d e4 43 17 be ec f6 ea bd a2 b2 cf bd
       0.11297342 -0.14771992 -0.11472878 -0.101414934
0001c0 16 42 3a 3e f9 e3 d4 3d f7 ca 4e 3e 70 23 f5 bc
       0.18189272 0.10395045 0.20194612 -0.029924124
0001d0 fc 53 45 3e c9 df a5 bd 25 50 ee bd b3 84 95 be
       0.19270319 -0.08099324 -0.1163638 -0.29202804
0001e0 80 0d 3f 3e c4 a6 ec be 01 22 08 3e 94 46 bd 3c
       0.18657494 -0.46220982 0.13294221 0.023104943
0001f0 0e e3 fc 3d a7 ce 78 3d ea 1b 2e 3e 6e 0c 8b 3d
       0.12347995 0.060743954 0.17002836 0.0678948
000200 7a 00 69 bc e5 17 23 be 60 60 54 3e 67 6a b1 bc
       -0.014221305 -0.15927084 0.20739889 -0.021657182
000210 f0 ce 41 be 08 11 bf 3d 9a 9e 12 be b9 8d e3 bd
       -0.18926597 0.0932942 -0.14318314 -0.11111016
000220 08 ab c9 3d 56 f5 85 3d 82 58 93 3a 1b e5 3b bd
       0.09847075 0.06540935 0.0011241587 -0.04587279
000230 34 91 98 3b ab ad 02 3d cf 99 8d bc bc b2 0a 3e
       0.0046559814 0.031903904 -0.017285256 0.13544744
000240 58 67 14 3e aa 39 62 3e 55 8a 85 bc 64 e4 aa 3d
       0.14492548 0.2209231 -0.016301313 0.08344343
000250 f5 ff e1 bc 07 75 04 3d 08 fb a9 bd 81 a9 cf bc
       -0.02758787 0.03233817 -0.082998335 -0.02534938
000260 a4 de ea bd 1a b1 2b bd bd 93 84 3c be 29 de 3d
       -0.114682466 -0.041916944 0.016183728 0.108478054
000270 d8 e1 4d 3e 6c 8a df bd a9 80 e0 3b 7c 68 d3 bd
       0.20105684 -0.10915074 0.006851275 -0.10322663
000280 ce 8d 66 be d0 ba 9d 3c da b4 96 3d 38 b5 31 bd
       -0.22515032 0.019254118 0.073587134 -0.043385714
000290 b6 aa eb bd a3 f2 e8 bd bc 5c 12 3d 2a 07 b5 bd
       -0.1150717 -0.11374404 0.03573297 -0.08839257
0002a0 19 5c a2 3e 47 4c 3a be 55 cd e1 3d 05 25 c0 3d
       0.3171089 -0.1819316 0.11025492 0.09382061
0002b0 3c bc 88 bc 0d 47 18 3e 45 2a e9 3d 25 34 8b 3a
       -0.01669132 0.14870854 0.113850154 0.0010620399
0002c0 4a 07 bb 3d 78 fe e3 3d 83 56 9d 3c 33 56 3e bd
       0.0913225 0.111325204 0.019206291 -0.046468925
0002d0 05 a7 47 3e 90 04 28 3e a7 46 0a be 2f 10 92 3b
       0.19497307 0.1640799 -0.13503514 0.0044574956
0002e0 07 01 c9 3c 95 35 6b 3d 9b 2f 92 3d 92 52 0d 3e
       0.024536623 0.057424147 0.07137986 0.1380103
0002f0 dc 2c 09 3e c6 4b 83 be 6d ed 27 3d f5 19 79 be
       0.13396019 -0.25643748 0.04099791 -0.24326308
000300 50 00 c5 3c f0 21 5a be 74 d5 88 3d 53 b8 67 3e
       0.024048 -0.21302009 0.06681338 0.22628908
000310 60 3b 7f 3d 29 be 1e bd 44 3b 10 be 7c 1e 82 3d
       0.062312484 -0.03875557 -0.14085108 0.06353471
000320 3b 8b 8d bb f9 ea 2b be 5c 83 05 be c2 29 b8 bc
       -0.004319576 -0.16788854 -0.13038391 -0.02248085
000330 33 8f 40 3d 84 0b e9 bc 4a 9c b6 bd 9a 6c 05 be
       0.047011565 -0.028447874 -0.089165285 -0.1302971
000340 0f 39 70 3d 76 55 ce 3d b6 a9 1f 3e a1 42 eb 3c
       0.058648165 0.10074894 0.15592083 0.028718295
000350 fd b4 a7 bc fc ce f5 3d af d7 f0 bd 50 c6 3f be
       -0.020472044 0.1200237 -0.117598884 -0.18727994
000360 73 86 63 bd c0 28 fc 3d d4 75 50 3d 6e 4c 50 be
       -0.055548143 0.1231246 0.05089362 -0.20341656
000370 92 25 be 3d 2b d4 a1 be bb 16 3a bd 60 41 4f bd
       0.0928451 -0.31607184 -0.045431834 -0.050599456
000380 3b fd 26 bd c3 a6 80 3d 97 cc ca 3d 29 64 b2 3e
       -0.040768843 0.06281807 0.09902304 0.3484204
000390 f8 79 2c bc 2d 5e ec bd 6f c2 05 be 90 92 e5 bc
       -0.0105271265 -0.115414 -0.13062452 -0.028023988
0003a0 60 8a 65 3d ee 30 eb 3d d1 83 40 3e 6f 28 f5 3d
       0.056040168 0.11483942 0.18800284 0.11970603
0003b0 81 67 27 3e 75 b9 12 be 3b 70 d4 bd 8c 02 2d 3e
       0.16348077 -0.14328559 -0.10372969 0.16895503
0003c0 f1 c3 18 3b f4 d8 db bd 98 29 1b bd 5a 52 68 3b
       0.002331015 -0.1073474 -0.037881464 0.0035449476
0003d0 20 59 83 3d 29 43 d4 3c 9d c1 0a 3c 5f a5 11 3e
       0.064134836 0.02591093 0.008469013 0.1422324
0003e0 d1 75 65 b9 7e 3e 9b 3d 75 33 a7 bd 10 0a e1 3d
       -0.00021883032 0.07580279 -0.081641115 0.109882474
0003f0 b5 66 13 be 50 86 15 bd 41 99 8a 3d 55 a3 50 bd
       -0.14394648 -0.036505044 0.06767512 -0.050937016

gru.weight_hh_l0 f4 [192, 64]
000000 ae 85 86 3d 6e 82 7c 3d 71 de 0d 3d 05 a9 f3 3b
       0.06568466 0.061647825 0.034635965 0.00743592
000010 77 58 08 3e 14 55 df 3d a4 16 a7 be f2 de 1c 3d
       0.13314997 0.10904899 -0.3263446 0.038298555
000020 9e 11 b2 bd 34 8f 1e be cf b4 aa 3d 0a 6a 54 3e
       -0.086947665 -0.15484315 0.08335268 0.20743576
000030 89 aa c2 bd 1c 0d b6 3c 44 38 11 bd 58 f5 d9 bd
       -0.09505183 0.022223048 -0.03545405 -0.10642499
000040 53 d0 5c be ba b8 dd 3d d4 50 e4 bd 4f 0a a2 3d
       -0.21563844 0.108262494 -0.11148229 0.079121225
000050 28 b5 00 3e 6f 1d 6f 3c 8b 1f 26 bb 08 5c 1f 3e
       0.12569106 0.01459442 -0.002534839 0.15562451
000060 4f b1 b4 b9 78 c0 cd bd 3a 3c 8b bd 8b ea bc bd
       -0.0003446438 -0.10046476 -0.06798597 -0.09224423
000070 1d c5 7a 3d 7c 99 8f 3d 60 bf e9 bc be 4c 62 3e
       0.061223138 0.07011697 -0.028533638 0.22099587
000080 67 75 40 3d 52 c4 d1 3c 0c 6e 52 3e f6 a7 06 bd
       0.046986964 0.025606308 0.20549792 -0.032875024
000090 ba bf a0 be 6a cf ed bd a2 53 0d 3d 2f d1 c6 3d
       -0.31396276 -0.11611827 0.034503587 0.09707867
0000a0 de ce c9 bb f1 9a eb 3d 1a 22 6f be c8 d1 ec 3d
       -0.0061586937 0.11504162 -0.23352852 0.1156345
0000b0 11 d6 cd 3c 02 e5 8f bd 09 ec 85 3d 54 26 04 3e
       0.025126489 -0.07026102 0.06539161 0.12905246
0000c0 59 d8 84 be bf 35 85 bd 0a 9a 8a bd f9 26 89 bd
       -0.2594631 -0.06504392 -0.06767662 -0.066968866
0000d0 2d cc ee bd f3 68 a5 bd 15 2f c3 3d 42 2f c8 bc
       -0.11660037 -0.08076658 0.095304646 -0.024436597
0000e0 5e b9 7a bd d4 fd b2 3c f3 9c fc bd ae 33 5e 3d
       -0.061211936 0.02184955 -0.12334623 0.054248504
0000f0 e4 44 d4 3d 7b f0 30 be fe 87 57 3d 4a 1b 78 3e
       0.10364702 -0.17279236 0.052619927 0.2422916
000100 93 9b 99 be c5 a1 2f 3e 9b a9 26 3d 0d 27 58 bd
       -0.30001506 0.17151554 0.040689092 -0.052771617
000110 f3 09 c0 bd cb ce 23 3d 0b 2a 9e 3e 13 f3 2d be
       -0.09376898 0.039992135 0.3089145 -0.16987257
000120 d1 0c 36 3d 57 54 d2 3d bf 9d 11 be 97 3e a8 bc
       0.044445816 0.10269993 -0.14220332 -0.020537658
000130 69 f7 f9 bd 9f 45 87 bd a3 93 4a bd 47 10 1b 3e
       -0.12205393 -0.06605076 -0.049457204 0.15142928
000140 48 4e 0b be 4c e5 38 be 8a 26 01 3b 46 86 2a 3d
       -0.1360408 -0.1805622 0.001970681 0.04163196
000150 f4 ed f2 bd 09 ae ba bd f4 86 00 be 4f 89 20 be
       -0.11861792 -0.09115226 -0.1255148 -0.15677379
000160 a3 3a 06 3e 14 62 bc bd 74 c3 6e 3d 1e f8 d5 3d
       0.13108306 -0.091983944 0.058291867 0.10447715
000170 dc 73 7d 3d a6 7f f4 3d 3a 74 90 3e ca 8b 0b be
       0.06187807 0.119384095 0.28213674 -0.13627544
000180 82 54 46 be bb c9 bd bc 38 88 e4 be 53 8f d5 bd
       -0.19368175 -0.023167482 -0.44635177 -0.104277276
000190 da df ff 3d 7a 09 01 be 11 db 56 3e 0b d6 c6 bc
       0.12493868 -0.12601271 0.20982005 -0.024271986
0001a0 f1 7a 9e bc 43 70 4e bd 10 51 b8 3a e0 57 0b be
       -0.019345732 -0.05040003 0.0014062244 -0.1360774
0001b0 8d 28 bd 3d fe cb 4a 3d 05 14 29 3e 37 64 c5 3e
       0.0923625 0.04951095 0.16511543 0.3855302
0001c0 be 5c 10 3e 5d f0 ef bd 94 0d a4 be de 28 c1 3d
       0.14097878 -0.117157675 -0.3204161 0.09431623
0001d0 73 d1 88 bc f6 0e 78 bd 55 ce 61 bc 02 2b 19 3c
       -0.016701436 -0.060561143 -0.013782104 0.009348633
0001e0 f6 56 93 bd 86 26 7c bd 92 91 23 3e ba 0a 68 3d
       -0.07194321 -0.061560176 0.159735 0.056650855
0001f0 9f 7f e8 bb 68 5d a2 bd 66 61 0a be cf b6 12 be
       -0.0070952917 -0.07927972 -0.13513717 -0.14327548
000200 9b c1 1a be dc 94 4d be ae d0 cf 3d 36 3f 6c be
       -0.15112917 -0.20076317 0.10147224 -0.23070988
000210 50 0c 88 3c 91 79 a8 3d 36 e4 ff 3d 41 c7 27 3d
       0.016607434 0.08226312 0.124947 0.040961508
000220 17 d7 15 3e c6 2e 0f bd 7a 45 79 3d 1b 8c 02 be
       0.14632832 -0.034956716 0.060857274 -0.12748758
000230 e8 e2 84 be 4b da 84 3d f2 93 38 be 44 f4 59 3e
       -0.25954366 0.064869486 -0.18025187 0.21284586
000240 51 9e 2b be 7a 65 51 3d 43 85 42 be fb e9 01 3e
       -0.16759612 0.051122166 -0.18996148 0.12686913
000250 93 14 23 3d 27 0d 34 bd f6 15 d7 bd c1 40 08 be
       0.039814543 -0.043957856 -0.105022356 -0.13305952
000260 f8 82 b4 3d 83 ac 7d 3e e7 3d b9 bd 7d 7f 89 bd
       0.08814043 0.24772839 -0.0904501 -0.067137696
000270 0a b4 50 3e d3 6e 8f 3c 2c 32 f2 3d bc a9 b1 bc
       0.2038118 0.0175089 0.11825976 -0.021687381
000280 b6 59 06 3e f0 6a 42 3d 86 79 75 be 9d 6e f6 bd
       0.1312016 0.047465265 -0.23972139 -0.120328166
000290 6d 02 2e 3e ef d0 86 3d 16 38 7b 3e 58 4d 45 3e
       0.16993113 0.0658282 0.24533114 0.19267786
0002a0 8f 43 0e 3d 89 7b 7b be e9 12 72 3e 13 d4 94 3d
       0.034732398 -0.24558844 0.23640026 0.072670124
0002b0 45 fb 5b be 47 08 18 3e 37 e3 19 3d 91 7d 91 bd
       -0.2148257 0.14846908 0.037570205 -0.07104028
0002c0 93 69 03 be a4 cd 61 3d 0b 7d 2b 3c f3 46 79 be
       -0.12833242 0.055127755 0.010466824 -0.24343471
0002d0 66 9d 89 3d bd b3 16 3d 45 e6 46 3e 8b 9e 26 3e
       0.067194745 0.036792506 0.19423778 0.16271417
0002e0 e4 ab 23 3e 57 0a ff 3a b6 3d 92 3e 79 f2 1e 3e
       0.1598354 0.0019458038 0.28562707 0.15522183
0002f0 f2 d7 09 3e b1 b8 2c 3e 1f cb 4a be 98 97 b8 bd
       0.13461283 0.16867329 -0.19804047 -0.09013289
000300 21 31 b6 3d bd 7d 50 3d 0d aa 5d 3d ed 2c 8b 3d
       0.08896089 0.050901163 0.05411725 0.06795678
000310 b4 37 18 bd b5 fa 16 be 6b 34 25 3e 62 56 a0 be
       -0.037162498 -0.14744075 0.16133277 -0.31315905
000320 8f a5 a5 3d 2b 2e c7 3d b1 10 7d be 52 8e 91 3e
       0.080882184 0.09725603 -0.24713399 0.28428894
000330 91 5a 2f 3e 88 06 57 3e e0 a6 d0 bc e4 78 fb 3d
       0.17124392 0.20998585 -0.025470197 0.122789174
000340 f0 10 46 3d cc 9d 14 be 5e cf ca bd 82 9d b8 3d
       0.048355997 -0.1451332 -0.099028334 0.09014417
000350 e3 2c 12 3e 2a 9a b1 bc c6 25 b1 3d 1f c7 3d 3e
       0.14274935 -0.021679956 0.08649783 0.1853299
000360 8c 35 6b 3d b4 c8 ed bd cc 29 00 bd 94 1b 9f bd
       0.057424113 -0.11610547 -0.03128986 -0.07768932
000370 f2 74 38 3c 10 e3 1b 3d de f6 06 3d b3 ce a5 bb
       0.011258351 0.03805834 0.032950275 -0.005060041
000380 44 28 9f 3d 7e a2 94 bd fb 0a 74 3c 52 6e 8b bd
       0.07771352 -0.072575554 0.014895196 -0.06808151
000390 3e cf 53 be 4a 2a 3b be 9f 4a 5d 3d 0f 14 2b be
       -0.20684525 -0.18277851 0.054026242 -0.1670687
0003a0 e9 50 72 3c 83 1c 7a bd de c3 3c bd fe 6c 61 be
       0.014789798 -0.061062347 -0.04608523 -0.22014233
0003b0 08 89 09 3c 06 c6 a7 3d 68 30 0f bc f2 2d 62 3e
       0.008394487 0.08192067 -0.008739568 0.22087839
0003c0 a9 d0 29 be 79 47 0c 3e f8 82 27 3d 23 79 9c bd
       -0.16583504 0.1369914 0.040896386 -0.076402925
0003d0 64 3d 47 bd c4 e3 57 bc d3 b0 ce 3d 33 b9 2f be
       -0.04864253 -0.013176862 0.1009232 -0.17160492
0003e0 fa 8f 94 be af 56 b4 3b ee 0c 06 be 9d a5 3e 3e
       -0.29016095 0.0055034976 -0.1309087 0.18617864
0003f0 48 d7 b7 3d 31 e7 54 bd 77 02 5a be 79 5c 4a 3e
       0.089766085 -0.051978294 -0.21290003 0.19761838

gru.bias_ih_l0 f4 [192]
000000 d0 9d 01 3a 0b a5 67 be 25 22 31 bd 59 9d d2 bd
       0.00049444754 -0.22621553 -0.043245453 -0.10283918
000010 bd 95 03 be 8b c3 f0 3d 56 f7 6e 3d 26 09 36 be
       -0.1285009 0.11756047 0.058341347 -0.17776927
000020 d8 0f 25 be 40 7b 8e 3a b6 e0 b7 bd 4d 77 02 bc
       -0.16119325 0.0010870472 -0.08978407 -0.007963014
000030 e9 3e 42 be 5b bd fd 3d 73 2e d5 bc e9 69 b2 3c
       -0.18969311 0.12389632 -0.026023125 0.021779018
000040 1b 18 11 3e b7 62 23 3d 26 b7 c9 bd c4 2f 4a 3d
       0.14169352 0.039889064 -0.09849386 0.04936196
000050 10 bd b4 bd 27 2f 02 be 37 58 a0 3c 63 ea c1 bd
       -0.08825123 -0.127133 0.019573314 -0.09468534
000060 cb 69 b6 3d 45 17 20 be 32 c2 7e bd bf 37 23 3e
       0.08906897 -0.15633877 -0.062196918 0.15939234
000070 20 88 1d bc 24 39 fb bc da 02 5b 3e 9d 9a bd 3d
       -0.009614974 -0.030666895 0.21387807 0.09258006
000080 0e a7 89 bb 37 58 cf bd 19 ca a9 3c 5d 96 59 3e
       -0.0042008227 -0.101242475 0.02072625 0.21248765
000090 e5 24 ae 3e c1 21 66 bd 11 0f 1b bd cd b9 5b 3e
       0.34012523 -0.056184534 -0.037856165 0.21457596
0000a0 92 54 60 3b c9 49 79 bc d4 62 d5 bd ca 25 6b be
       0.0034230095 -0.015215346 -0.104192406 -0.22963634
0000b0 ab 6b 6b 3d a8 28 40 be c1 22 a7 bd 2b f8 80 3d
       0.057475727 -0.18765509 -0.08160926 0.06297334
0000c0 6a 56 d8 3d 6d 1f 80 bd 23 c5 8f bd 7b f2 6b bb
       0.10563357 -0.06255994 -0.07020023 -0.0036002684
0000d0 c7 06 f0 3d 70 73 66 bd eb 9e 12 3d 0e 2a 2c 3d
       0.11720043 -0.056262434 0.035796087 0.042032294
0000e0 3d 84 bd 3c 6b 59 90 bd be e7 0c 3e b3 e8 cd bc
       0.023134345 -0.07048305 0.13760278 -0.025135374
0000f0 66 3c a5 3d 40 84 2a be 9d 80 f9 bd dc 75 06 3d
       0.08068161 -0.16652012 -0.12182734 0.032827243
000100 d5 16 21 3e 63 f6 e3 bd 56 36 a8 3d 07 c0 92 3d
       0.15731366 -0.11130979 0.08213489 0.071655326
000110 e6 c9 f7 bc c7 88 82 3e b7 51 6e 3e 5c 1b 6b 3e
       -0.03024764 0.25494978 0.23273359 0.22959656
000120 62 47 af bc 06 13 c4 bc 69 c5 b8 3d de be 95 bd
       -0.021396343 -0.023934852 0.09022028 -0.07311796
000130 32 93 13 3f 82 5c 26 3d d8 06 09 be 29 5c 19 3e
       0.5764648 0.040615566 -0.13381517 0.14976563
000140 d1 83 b7 3e 8e 8c 0b 3d ce 55 d2 bd 3b 1c 05 3d
       0.35842755 0.03406959 -0.10270272 0.032497626
000150 88 45 65 3e ff 78 7a bd 95 f2 4b 3d 18 1b 30 be
       0.22389805 -0.061150547 0.04979189 -0.17197835
000160 91 92 f3 3c 12 f6 aa bc ca 2c 34 3e 8a db 6f 3d
       0.029732974 -0.020869289 0.1759521 0.05855898
000170 43 14 4c 3e d5 45 27 3d d5 cf 38 be f8 f7 bb 3d
       0.19929604 0.04083808 -0.18048032 0.09178156
000180 0e 56 12 3f 72 f2 07 3e d9 a4 66 3d ab d3 3a 3d
       0.5716256 0.1327608 0.056309555 0.04561202
000190 aa 53 3e bd 9b bd 20 3e 94 12 82 3c c5 1c 12 3c
       -0.046466507 0.15697329 0.015878 0.008917992
0001a0 79 0a 9a bc 34 ac be bd 78 be c1 3d fd 08 ca bd
       -0.018803822 -0.09310189 0.09460157 -0.09864996
0001b0 21 90 98 3e 3c 25 59 3c 0a ca 1c 3e 40 90 ef 3d
       0.29797462 0.013253506 0.15311447 0.116974354
0001c0 58 56 ed bd ec 3f 0b be 6c 00 21 3e a2 a0 7e bb
       -0.115887344 -0.13598603 0.15722817 -0.003885307
0001d0 49 e3 09 3d 11 94 df bc bf 15 e6 3b 18 8b 04 bb
       0.03366402 -0.027292283 0.0070216353 -0.0020224508
0001e0 43 5e 4d be 70 08 0e be 19 84 19 3d 08 c9 8c 3d
       -0.20055489 -0.13870406 0.037479494 0.06874281
0001f0 26 6f aa 3d 24 5b 13 3e d3 92 86 3d 77 a9 ef bb
       0.08321981 0.14390236 0.06570973 -0.007313903
000200 b3 25 7e 39 31 59 29 3c 48 d1 0c bd 0d bb c0 bd
       0.00024237372 0.010336206 -0.034379274 -0.09410677
000210 8b c4 8e 3d 28 a9 b0 3d ad dc 56 3c a9 60 26 bd
       0.06971081 0.08626014 0.013114137 -0.040619526
000220 fd b1 59 bd 1a 9f 43 bd 4f 10 1b 3d a9 50 e8 bc
       -0.05314826 -0.047759153 0.03785735 -0.028358774
000230 f0 ab 5c bb 75 4e 3c be fd 1e a2 3d 10 ee e6 3d
       -0.0033671819 -0.18389304 0.07916067 0.112758756
000240 28 b0 87 3d 64 70 b8 bc 91 74 11 be fc 44 05 3d
       0.06625396 -0.02251453 -0.14204623 0.03253649
000250 87 f2 ea 3c a7 73 22 3e 89 df 63 bd 6f 9c d2 bc
       0.0286801 0.1586443 -0.0556331 -0.025709359
000260 b4 55 0d be c9 e2 c1 bc 10 00 69 3d b2 c2 8d bd
       -0.13802224 -0.02366771 0.056884825 -0.06921901
000270 6e d0 e0 3a c1 4c 5c 3d 08 7e 25 bc b1 c6 04 be
       0.0017151961 0.053784136 -0.010100849 -0.1296642
000280 af d8 ed 3c 8c 51 16 3e e4 b4 ec 3b a7 97 7b bd
       0.029033987 0.14679545 0.0072237123 -0.061423924
000290 f0 35 67 bb 03 cc 1b bc 20 6a 65 bd 0d d3 c8 3d
       -0.0035279952 -0.009509089 -0.05600941 0.0980588
0002a0 60 15 49 bd 86 c4 72 bd e3 66 36 3d 62 9b 24 bd
       -0.04909265 -0.05926945 0.044531714 -0.040187247
0002b0 b7 c1 21 bd 30 02 22 be 4d 69 f7 3c d2 ac 82 3c
       -0.03949138 -0.15821147 0.030201579 0.015951548
0002c0 4f 60 37 bd 12 88 dc 3d dd bd b2 bd 08 e4 15 3e
       -0.04476958 0.10768141 -0.0872762 0.14637768
0002d0 4a 1e 60 3d 2b df a2 bd 75 6e 5a ba 27 43 03 3d
       0.054716386 -0.07952722 -0.00083324994 0.032046463
0002e0 36 7a 07 be 81 d1 e8 bd bd bf 1f 3d a0 2a 24 be
       -0.13230214 -0.11368085 0.039001215 -0.16031885
0002f0 cb a4 31 3d 37 33 e6 3d c9 ee 3b 3d 32 8b 9c bd
       0.04337005 0.11240237 0.04588202 -0.07643737

gru.bias_hh_l0 f4 [192]
000000 de b9 fe bc 25 f1 37 bd 4a be 11 be 38 fe 17 be
       -0.031094488 -0.044907708 -0.14232746 -0.1484307
000010 2d a7 68 bc 1e 42 37 bd 0f 36 36 3e 05 b6 e2 bd
       -0.014200014 -0.04474079 0.17794059 -0.11069874
000020 cc 69 0b be fc 19 21 be a4 78 63 bd 2f f1 a6 bd
       -0.13614577 -0.15732569 -0.055534974 -0.08151471
000030 d5 07 07 bd 85 7a 22 bb a4 bc 56 be 2c 7b 73 3d
       -0.032966454 -0.0024792266 -0.20970398 0.059443638
000040 04 a7 08 3e 1c a5 14 3e 04 6b 25 be bd ec a0 3d
       0.13344961 0.14516109 -0.16154104 0.07857654
000050 98 0e 8c bd 6d 30 04 3d 87 c0 5f bd ae 40 1f bc
       -0.06838721 0.032272745 -0.054626968 -0.009720011
000060 04 e8 37 3d d4 d0 1b be 8a a3 bc 3c e0 2b ad 3d
       0.044899 -0.1521638 0.0230272 0.08455634
000070 9f 67 76 3c e8 cc 5b be f5 9b 28 3e 0e 89 88 3d
       0.015039354 -0.21464884 0.16465743 0.06666766
000080 f4 a1 46 3e dd 2e a5 3b f2 ca 36 3d 6a e7 f9 3d
       0.19397718 0.005040987 0.044627137 0.12202342
000090 18 6d 36 3e 4d fd 0e bc ba 9a 44 3c 59 e5 4a 3e
       0.17815053 -0.008727384 0.01199978 0.19814052
0000a0 99 12 33 bd ba 2d ce bd 9c a3 01 be ef bf f8 bc
       -0.043718908 -0.100673154 -0.12660068 -0.030364959
0000b0 07 be 8e bd 34 e8 c4 bd c2 03 29 bc da c0 a0 3d
       -0.069698386 -0.09614602 -0.010315837 0.078492835
0000c0 e3 93 34 3e 30 dc 03 be ca b0 7b bd 54 b2 12 be
       0.1763454 -0.12876964 -0.061447896 -0.1432584
0000d0 34 8f d5 3d 23 bf 57 bd 52 2c fe bc 0a f8 4c bd
       0.104277045 -0.052672517 -0.031026993 -0.050041236
0000e0 86 ba 78 bd 72 04 48 be 85 c4 43 3e 85 59 bb 3d
       -0.060724758 -0.19532946 0.19117935 0.09147934
0000f0 8f 08 80 3d 29 6d 2e bc 63 b4 d1 bd c7 b1 c2 bd
       0.062516324 -0.010646143 -0.10239484 -0.095065646
000100 2c 8a 02 3e f7 40 16 3d d9 bb c9 3d 00 26 44 3e
       0.12748021 0.03668305 0.09850282 0.19155121
000110 e3 a7 98 bc fd 8e 60 3e 8b 5d 51 3e 52 60 1d 3e
       -0.018634742 0.21929546 0.2044584 0.15368775
000120 7a e1 2b bd 4e fa c3 3d e3 4b e6 3d 23 92 d1 bd
       -0.041963078 0.09569226 0.11244943 -0.102329515
000130 14 f9 14 3f 6e 57 99 3c a8 7b 32 bc 0b fc 0c 3e
       0.58192563 0.018718448 -0.01089374 0.13768022
000140 ab 9b cb 3e 3c 3a a5 bc 51 15 3d 3c a9 3e 55 3e
       0.39767203 -0.02016937 0.011540727 0.20824684
000150 d0 b7 03 3e e5 44 bc 3b 45 f4 bc 3d 1e c5 00 be
       0.12863088 0.0057455176 0.09226278 -0.12575194
000160 60 1d fe bc 52 58 9e 3d 83 83 b4 3d c3 4b 01 3d
       -0.031019866 0.077316895 0.08814146 0.031566393
000170 5c ed 86 3d 9d bb 16 3e bc 7d 2c 3c bd 5d cb 3c
       0.065882415 0.14720006 0.010528024 0.024824971
000180 2b 9a 1b 3f aa 9e 89 3d 48 e4 83 3b ff e2 8c 3d
       0.60782117 0.06719716 0.004025016 0.068792336
000190 90 02 e5 bd 16 87 0c 3e 67 c8 18 3e e2 dd 0a be
       -0.111821294 0.13723406 0.14920197 -0.13561204
0001a0 c0 df a9 bd 97 32 d0 bd 17 f3 7d 3c 58 2f 08 bc
       -0.0829463 -0.10165899 0.015499852 -0.008312069
0001b0 01 e0 99 3e 67 5e 0a be 34 2c 1f 3e 59 30 79 3e
       0.30053714 -0.13512574 0.15544206 0.2433485
0001c0 2d b1 9b 3c 68 5f a7 bd 08 73 7d 3e 44 80 5b 3d
       0.019005382 -0.08172494 0.24750912 0.05358912
0001d0 b6 68 07 3d b1 c1 19 bc a0 b6 9e 3d 69 d6 a1 3a
       0.033058845 -0.009384559 0.07749677 0.0012347224
0001e0 ab 0e 47 bd 82 89 09 be 8b 74 9f 3d aa 20 d1 3c
       -0.048597973 -0.13431361 0.07785901 0.02552827
0001f0 14 97 92 3c 78 85 d4 bc 2a f3 7a 3d f1 b9 a5 3d
       0.017894305 -0.02594255 0.061267056 0.08092106
000200 72 59 7d 3d bd 43 b9 3d a2 ef 02 3d fa 38 16 be
       0.06185288 0.09046123 0.031966813 -0.14670172
000210 d5 4d a3 3d 43 a6 a8 3d 82 ba f4 3c 28 42 85 3d
       0.0797383 0.08234837 0.02987409 0.06506759
000220 7e 71 b1 bd d3 4d ce bd 8e fb 8c 3d 57 b8 15 bd
       -0.08664225 -0.100734375 0.06883918 -0.036552753
000230 ef fa eb bd b0 7b 1b be f2 10 b4 3d 32 a3 ac bd
       -0.11522471 -0.15183902 0.087922946 -0.084295645
000240 f9 f8 0a 3d 14 56 0b 3e 14 e6 c1 bd 56 bd ed 3d
       0.033928845 0.13607055 -0.09467712 0.116083786
000250 a8 ae 72 3e 0b da bd 3d f9 f0 e7 bd 70 07 74 3d
       0.23699439 0.09270104 -0.11325259 0.059577405
000260 01 af aa bd c6 59 27 be 37 fc 0d 3e 16 6e d5 bd
       -0.083341606 -0.1634284 0.13865744 -0.10421388
000270 d8 1f 98 3c c2 4c ce bc ff 05 fe bc 6d a3 ce 3b
       0.018569872 -0.025183085 -0.031008719 0.006306103
000280 b5 c8 cc bd 86 89 cf bd 03 f3 47 3d 15 95 cb 3d
       -0.09999219 -0.101336524 0.04881574 0.099405445
000290 d7 9f 99 3d ee c7 c9 bd 1a da 16 bc cc 90 d0 bc
       0.0750119 -0.09852587 -0.009207273 -0.02545967
0002a0 5a 79 ba bd 9b 99 90 3d 64 cf eb bb af 3b 02 be
       -0.09105177 0.07060548 -0.0071963537 -0.1271808
0002b0 0a e5 c0 bc 22 6c 7e bc 67 3a 9d 3d 6c 25 19 bd
       -0.023546714 -0.015528711 0.07677155 -0.037389204
0002c0 86 1f 9c bc c0 86 2a bc 97 4a 3f bd b2 a5 14 3d
       -0.019058 -0.0104081035 -0.046701994 0.036290832
0002d0 f9 27 9f 3a 5f 30 2f be 01 05 5d 3d b4 54 47 bd
       0.001214265 -0.17108296 0.05395985 -0.048664764
0002e0 ec 8e b1 bd 28 a6 da bd 8b f4 a0 bd d9 18 2d be
       -0.08669838 -0.10676223 -0.07859143 -0.1690401
0002f0 8e bd 29 3e e8 69 fe 3c c5 af 5c 3d 89 e0 ba 3c
       0.16576216 0.03105636 0.053878564 0.022812145

fc.weight f4 [64, 65]
000000 27 34 09 3e 29 37 c5 3d f7 7a cd bd d5 82 64 3d
       0.13398801 0.096296616 -0.10033219 0.055788834
000010 f7 cb 73 3d 56 44 87 3d 47 88 71 3c dc a3 bd bb
       0.059520688 0.06604831 0.014741964 -0.005787356
000020 2c 39 f4 bd 80 13 72 bc a1 40 63 bd 76 cf 88 bc
       -0.11924967 -0.014775157 -0.055481557 -0.016700488
000030 66 0b 81 be bf 01 f6 bd 0a 89 6a bd 04 80 a8 bd
       -0.2520401 -0.12012052 -0.057259597 -0.08227542
000040 68 bb bd be 1a a4 00 bd f6 06 62 3c bf 5f d0 bd
       -0.37057042 -0.0314065 0.013795605 -0.10174512
000050 cf a5 0d be 3d 56 25 3e 30 6b 6a be 6d f1 f6 bd
       -0.13832782 0.16146179 -0.22892451 -0.12057767
000060 1d 3d ae 3c 5c 0b e1 bd 5d 0e b9 3d 44 78 53 bb
       0.021269375 -0.10988495 0.09035943 -0.0032267729
000070 ed 97 5c bd ac de 0b bd 9e 54 03 3e b3 ac b5 bd
       -0.053855825 -0.034147903 0.12825248 -0.088708304
000080 3d 55 de be c0 9a 23 3e 73 23 14 be 2c fe 25 bc
       -0.43424407 0.15977001 -0.14466648 -0.0101314
000090 38 a7 d6 3d 8e ca 4b 3d b9 bb 9a 3c 48 8f a0 3d
       0.10481113 0.049753718 0.018888341 0.07839829
0000a0 d2 fd 11 3d 97 2e 61 be ec 1c 68 3d dc 6b 67 3d
       0.035642453 -0.21990429 0.056668207 0.056499347
0000b0 57 9f 03 3e 72 0a d5 3a a4 36 bd bd bb 79 0c be
       0.12853752 0.0016253723 -0.092389375 -0.13718311
0000c0 dd cd b6 3d b3 5b 94 bd 46 14 84 3d 77 a9 cb 3d
       0.08925984 -0.07244053 0.06449179 0.09944432
0000d0 7f ac f9 3d af e7 f6 bd 95 8d 1d 3d 4a e5 df 3d
       0.12191104 -0.12055909 0.0384651 0.10932405
0000e0 59 a3 1f 3e 60 ec 88 3c 73 9b cd 3d 7c 4a 17 be
       0.15589656 0.016714275 0.10039415 -0.14774507
0000f0 99 4b 1d bc c7 e9 92 3d 21 25 8f 3d 4d 82 a7 3c
       -0.009600543 0.07173496 0.06989504 0.020447874
000100 4d db 79 be 62 3d 84 bc 25 72 c4 ba 37 f4 ad bd
       -0.24400063 -0.01614255 -0.0014987631 -0.08493846
000110 da b1 10 3a 59 38 d6 bd 3d 9f 3d bd a3 36 68 3d
       0.0005519666 -0.10459966 -0.04629444 0.05669273
000120 f8 a1 ff bc c7 e1 c3 3b f6 77 cc bd f1 2d 57 3d
       -0.031205162 0.0059778425 -0.09983818 0.052534048
000130 1c 3d c0 3d 7d f9 bc 3c 6e 8d 94 3d 28 7c cf bb
       0.09386656 0.023068184 0.07253538 -0.0063319393
000140 59 21 b9 bc cf 91 08 bc 81 b5 d6 bd fd a0 e2 bc
       -0.02259891 -0.008335545 -0.10483838 -0.027664656
000150 f4 b4 b9 3d bd fd 25 3d e3 e5 cf bd 83 29 90 bd
       0.09067717 0.040525187 -0.10151269 -0.07039168
000160 77 5a 9a 3d 29 45 8e 3d 35 02 f6 3d d5 3d 5a 3d
       0.07536786 0.06946785 0.1201214 0.053281624
000170 cb 96 60 3c 43 12 19 3e 95 a8 a6 3d bb 99 ef 3d
       0.013707827 0.14948373 0.08137623 0.11699244
000180 ed 3b f9 3c 93 47 ce bd 2e a4 4f 3d e1 3a c7 ba
       0.030424083 -0.100722454 0.050693683 -0.0015200042
000190 9d 22 27 3d 15 bf 6c bc 9f 55 96 bd 1b bd 0a be
       0.040804494 -0.014449854 -0.0734055 -0.135487
0001a0 e5 0a 12 3d ed 65 95 bd f7 ff 07 bd 16 20 d5 3d
       0.03565492 -0.072948314 -0.03320309 0.104065105
0001b0 0d 74 86 3d 51 39 8e bc c6 93 e6 3d 5a 63 16 bd
       0.06565104 -0.017361315 0.11258654 -0.036715843
0001c0 06 8e e6 3d 7a 59 6f bd 84 aa 8a 3d 35 ef c2 3c
       0.112575576 -0.05843494 0.067708045 0.023795703
0001d0 58 b4 e9 3c 3d 21 d4 bd f1 34 31 3d b1 92 71 3d
       0.028528377 -0.10357902 0.04326338 0.058977786
0001e0 a7 9a b3 3d 68 03 7f bd 10 4d 47 3d 3a 2c 33 bd
       0.08769732 -0.062259108 0.048657477 -0.04374335
0001f0 5d 91 30 bd 66 66 b0 bc 0a 5b 88 bd 52 55 9c bd
       -0.04310738 -0.021533202 -0.06657989 -0.07633461
000200 39 b3 0b be c1 45 99 bd 40 ca 7c 3e 9c 1b 8f 3d
       -0.13642587 -0.074840076 0.24686527 0.06987688
000210 df 76 08 bd 46 42 c8 3b d9 ed 13 bd 00 c7 ef 3d
       -0.03331649 0.006111416 -0.0361155 0.11707878
000220 50 6c 28 bc 93 40 61 3e 60 2e a6 bd 8f ed b0 bd
       -0.01027973 0.2199729 -0.08114314 -0.08639061
000230 cc 8f b6 3d b1 85 0a 3d 13 e7 88 bd 4f e5 f1 bd
       0.08914146 0.033818904 -0.06684699 -0.11811315
000240 11 29 af 3d 9d d2 5c be da 28 59 be d2 7d 72 bb
       0.08552755 -0.21564718 -0.2120699 -0.0037001264
000250 cd 50 39 bd 01 c5 fd 3c 04 e8 04 be 2c d7 c4 bc
       -0.045243073 0.030977728 -0.12979132 -0.024028383
000260 cb a8 ed bd cd 99 9b bb 13 3c e7 bd 3c 05 a9 bc
       -0.1160446 -0.004748559 -0.11290755 -0.020632379
000270 07 be 0e 3d 16 a1 49 3b 81 73 fb bc b8 cd fe 3c
       0.034849193 0.003076618 -0.030694725 0.031103954
000280 7e 27 69 bb 1f 6b 56 3d 70 af 58 be 30 21 d9 ba
       -0.0035576518 0.052348252 -0.21160674 -0.0016565677
000290 b7 44 6c 3d 2f e1 a7 3d 17 c6 a6 b9 dd f1 65 3d
       0.05768272 0.08197247 -0.00031809576 0.056138862
0002a0 12 4f f1 3b 7b 46 ad 3d c5 85 c7 bb 5f c2 c5 bc
       0.0073641622 0.08460709 -0.0060889446 -0.024140535
0002b0 23 c0 0e bd aa 42 3c 3d 5d d0 c5 bd 60 01 04 bd
       -0.034851205 0.045962013 -0.09658883 -0.032227874
0002c0 9a 52 bb 3b fc 03 f6 bd f5 0f dc bd f3 31 0e 3c
       0.005716634 -0.12012479 -0.10745231 0.008678901
0002d0 cd 70 06 bd d3 29 eb 3c 96 83 2e bd b2 f5 e2 bd
       -0.03282242 0.028706467 -0.04260596 -0.11082019
0002e0 3f 78 a9 bd 23 8b 6a bd 02 04 a5 bb 8d 94 23 3d
       -0.08274888 -0.057261597 -0.005035878 0.03993659
0002f0 a0 01 b5 3c d4 d6 97 bd 98 35 f5 bd 78 9d 4a bb
       0.022095501 -0.07414022 -0.11973113 -0.0030916613
000300 06 62 98 bd 22 aa 8f 3d cc 39 b8 be 17 8f c1 bd
       -0.074405715 0.07014872 -0.35981596 -0.0945112
000310 40 ea 32 39 a7 58 de 3c 6d 35 c8 3d f5 1f 20 bd
       0.00017062668 0.027141882 0.09775815 -0.039092977
000320 0c 8b 25 3b 12 dd 16 3c 53 40 ef bb 97 69 ed 3d
       0.002525988 0.009207981 -0.007301369 0.11592405
000330 b9 10 92 bd 26 d7 65 bd c0 43 8b bc 50 e9 62 be
       -0.07132096 -0.056113385 -0.01700008 -0.22159314
000340 58 9c 72 3d 94 ea bd 3c 0e 4f cc 3c 55 5e 1e be
       0.059231132 0.023183145 0.02494004 -0.15465672
000350 db da fb bd 35 d7 a9 3d 47 26 81 3d fc 14 d0 3d
       -0.12297603 0.082930006 0.06306129 0.101602525
000360 2f 3c 13 bd 96 43 de bc 96 b2 9c bb 7f d9 1f 37
       -0.035946067 -0.027131837 -0.0047820313 9.527778e-06
000370 63 7e 45 3d 61 01 80 bd 16 70 88 bc 1f 2f f8 bc
       0.048216235 -0.06250263 -0.01665501 -0.030295907
000380 8e 46 ea 3c 08 63 cd 3b ce 24 75 bd 0e 70 be 3e
       0.028598096 0.006267909 -0.059849553 0.37194866
000390 29 f0 1b 3d f0 d4 04 3d 1e 1a 9a bd 11 12 17 3c
       0.03807083 0.032429636 -0.07524513 0.009220616
0003a0 4a 98 f8 3d 52 8c 15 bd 06 a9 db 3d ff 0e c4 bc
       0.12138422 -0.036510773 0.10725598 -0.023932932
0003b0 6c 12 b6 bb 95 17 0d 3d 6e 2c 61 bd 11 ed c3 3c
       -0.0055563953 0.034446318 -0.054974012 0.023916753
0003c0 b1 ba 1f 3e c5 82 e9 3d 95 46 55 3c 12 d9 07 be
       0.15598561 0.114018954 0.013017316 -0.132664
0003d0 a4 db b3 3a b6 1f c6 bd a1 aa 28 3d 53 31 a8 bc
       0.0013722074 -0.09674017 0.04117835 -0.020531332
0003e0 4f e1 27 3e 34 93 81 3b 9c 6f b4 3d 82 5b da 3c
       0.16394542 0.0039543156 0.0881035 0.026654962
0003f0 da 8d 52 ba 58 b9 20 3d 07 57 89 3c df 7d a8 3d
       -0.0008032002 0.039239258 0.01676513 0.08227133

fc.bias f4 [64]
000000 7c 43 c2 3d 9e 60 d3 bd 75 71 33 3e 02 28 dc 3c
       0.09485528 -0.10321163 0.17523749 0.026874546
000010 a6 7b 28 3d 15 bf 6f 3d 46 05 3e 3e 78 24 c9 bd
       0.041133545 0.05853184 0.18556699 -0.09821409
000020 fa c4 c8 3d 9f f3 f8 3c 88 31 db 3a 9a c4 94 bd
       0.09803195 0.030389605 0.0016723135 -0.07264061
000030 20 f2 2f 3d 6b 38 5e bd 3b 84 a0 3c 87 6b 6a bd
       0.042955518 -0.054253023 0.019594302 -0.057231452
000040 ad fc ed bd b2 9f 04 be 17 04 cb 3c 25 f6 bd b9
       -0.1162046 -0.12951544 0.024782224 -0.0003623228
000050 b6 d0 0e 3e 0b 23 96 3d b5 c8 35 3d dd 30 d6 bd
       0.13946804 0.07330903 0.044380862 -0.10458539
000060 e9 37 22 3e 8e 22 55 3d 92 71 20 3d 86 c4 a9 bd
       0.1584164 0.052034907 0.03917081 -0.08289437
000070 fa ab 60 3b 78 ed 5a bd a1 6f c5 3c ad a1 31 3d
       0.0034282194 -0.053449124 0.02410108 0.043367077
000080 fb 8a 15 be 7e ff 6b bd 5d 03 dc 3d 32 39 b3 3b
       -0.14603798 -0.057616703 0.10742829 0.0054694647
000090 41 90 07 bd 34 7c 85 3d 9d 13 4c bd 1f 58 0d bd
       -0.033096556 0.065178305 -0.049823392 -0.034507867
0000a0 68 15 2f 3d 72 6e 04 be 90 17 e0 bd 14 b8 f7 bd
       0.042745024 -0.12932757 -0.10941994 -0.12095657
0000b0 b9 3d ef 3d 01 c1 3f bd 41 c9 eb 3c d9 16 03 3e
       0.116816945 -0.046814922 0.028782489 0.12801684
0000c0 4a 8f 3d 3d 0c 6f a9 bd 1d 24 e7 bd c3 e8 17 3c
       0.04627923 -0.08273134 -0.11286185 0.009271803
0000d0 e3 7a 9b 3d b5 01 35 bc 8c 6a 62 bd 55 5b 77 bc
       0.07591798 -0.01104777 -0.055277392 -0.015097459
0000e0 ed 9d e7 bd 05 a9 05 be f8 44 91 3d e9 c4 99 3d
       -0.11309419 -0.13052757 0.07093233 0.07508261
0000f0 a9 9b 02 be 8d e8 b7 3c 84 bb 12 bc 6a 2f af 3d
       -0.12754692 0.022449756 -0.00895584 0.085539654

fc2.weight f4 [3, 64]
000000 18 82 da be b1 19 a4 bb d5 f4 6e 3e 15 d7 1e 3e
       -0.4267738 -0.0050079455 0.23335584 0.15511735
000010 80 4a 47 3d ec a0 db 3d 0b 65 8b 3f dc 3b 3a 3e
       0.048655033 0.10724053 1.0890211 0.18186897
000020 e5 99 df be d7 b3 08 3f 25 24 4b 3e 9b 7c cb 3d
       -0.436721 0.53399414 0.19838007 0.09935876
000030 61 8f 30 3e e1 c4 c5 3d 59 a9 24 bd f9 c2 6f 3d
       0.17242195 0.09656692 -0.040200565 0.05853555
000040 d8 12 7e bd 8b 9b 55 3e 1d df 37 3e e9 c7 81 bd
       -0.06202969 0.20860116 0.17956205 -0.06336958
000050 51 d0 f8 be f5 ed 31 bc 12 cd 46 be 0d 90 03 3e
       -0.48596433 -0.010859956 -0.19414166 0.1284792
000060 b4 de d7 be 4c 6e a4 bd 4e 82 91 bd 13 d1 01 bd
       -0.42162097 -0.0802885 -0.07104932 -0.03169353
000070 4f af 13 3e 26 85 1e 3b 73 93 33 bd 3e ee 90 be
       0.14422344 0.002418825 -0.04384179 -0.28306764
000080 c2 c9 5d 3c f7 16 2b 3e 4d bf 9e 3f c1 56 5e 3b
       0.013536872 0.16707979 1.240213 0.003392622
000090 68 e1 99 bc c6 d8 8e 3e 23 00 0f 3d e8 4d 82 3d
       -0.01878424 0.2789976 0.03491224 0.06362516
0000a0 7d da b7 3d c6 82 8e 3e c8 b2 a0 bc ec e7 31 bf
       0.0897722 0.27834147 -0.0196165 -0.6949451
0000b0 8f fe b9 be 24 c8 79 3d fc 64 11 be e8 96 8e ba
       -0.36327025 0.060981885 -0.14198679 -0.0010878714
0000c0 32 66 65 be 13 48 23 3e 0c f1 aa bd 6a 34 df bd
       -0.22402266 0.15945463 -0.08346757 -0.10898669
0000d0 01 13 67 3c 03 fa aa bc 03 37 65 3d 44 e1 91 be
       0.014103652 -0.020871168 0.055960666 -0.28492177
0000e0 11 6a a1 bc ab 04 1d bf 23 9c 7c 3b 72 de 54 be
       -0.019703897 -0.6133525 0.0038545213 -0.20787981
0000f0 3a 94 9e 3c 1c d2 43 3e f4 79 d7 bb c1 3a b6 3f
       0.01935779 0.19123119 -0.0065758172 1.423668
000100 c2 f7 a5 3e 6b ba b9 bc 25 c9 05 3f b0 03 8a 3d
       0.32415587 -0.022671899 0.5226005 0.067389846
000110 26 6d 14 bd 8f b9 67 bd 8a 2e 6e 3f 10 32 69 be
       -0.036236905 -0.056573447 0.9303976 -0.22773004
000120 8e d6 53 3e 25 86 6f 3f 1f 9c 22 3d c3 91 47 be
       0.20687315 0.93564063 0.03969967 -0.19489197
000130 39 3b 55 be 36 3a 2d be e2 ff a9 bd 32 cb 86 bd
       -0.20823373 -0.16916737 -0.08300759 -0.06581725
000140 9d 82 34 bd ac 5c 95 bd 1b a8 90 3c 70 f9 a9 bd
       -0.044069875 -0.072930664 0.017658284 -0.082995296
000150 84 cb 2b 3e 65 73 00 be 99 0f 04 bd 4e 84 86 be
       0.16776854 -0.1254402 -0.032241438 -0.26272815
000160 74 5c 96 3e 0b 9c ee bd 18 6b e4 bd d9 9a 13 3d
       0.2936741 -0.116508566 -0.11153239 0.036036346
000170 fb df 73 bd 70 0d 48 3d 2c d0 28 bd 46 7e f1 3d
       -0.059539776 0.04884094 -0.041214153 0.11791663
000180 5c 6e b6 bc 56 c4 5b 3d 7e 23 79 3f e7 99 4b bc
       -0.02226942 0.053654037 0.9731978 -0.01242683
000190 b1 f9 3a 3d 68 d9 ad bd c0 14 d5 bd 27 30 04 3d
       0.04564828 -0.084887326 -0.104043484 0.032272484
0001a0 cf 02 4d bd 68 3c 62 bd 8c 98 63 be 83 e7 af 3d
       -0.050051507 -0.05523339 -0.22226161 0.08589079
0001b0 4d e3 30 3d fa a9 6f bd de 27 35 be fa c1 d0 be
       0.04318552 -0.05851171 -0.1769099 -0.40772992
0001c0 4d 21 34 3d d3 fc 0f 3c 93 97 9a bd c8 5f c3 bc
       0.04397707 0.008788305 -0.07548442 -0.023849383
0001d0 6e 66 ce b9 18 cb ff bd 54 95 ab 3d 06 cb 11 3f
       -0.00039367698 -0.12489909 0.083780915 0.56950414
0001e0 94 19 69 3d 8b 42 df 3e 47 7f 33 bd 3a d1 95 bd
       0.05690916 0.43605456 -0.043822553 -0.073152974
0001f0 91 e2 a9 bd 18 68 13 3d 95 42 bb 3c d3 b8 88 3f
       -0.08295167 0.035987943 0.022858897 1.0681404
000200 3a 79 8e 3d bb bc 87 bc 96 df 4b bf 18 9c 9b be
       0.06956716 -0.016569486 -0.7963804 -0.30392528
000210 9a 7f 87 be fb 95 c0 3d 95 f4 14 c0 51 24 c0 bc
       -0.2646454 0.094036065 -2.327428 -0.023454817
000220 4a 74 17 3d cc 6b ce bf 33 3e 98 be 5e 6a 93 3d
       0.036976136 -1.6126647 -0.29734954 0.07198022
000230 c4 10 f6 3d 2c 5d 22 3d cb 53 a7 bd ca 33 93 bd
       0.120149165 0.039639637 -0.08170279 -0.07187612
000240 97 39 93 bd 3f 63 6d be 60 f3 7d be 76 a1 b4 3d
       -0.07188719 -0.2318239 -0.24799871 0.08819859
000250 6c e5 12 3d d4 fa ef 3d 57 da 26 3e c5 1a c7 3d
       0.035863325 0.117177635 0.16294228 0.09721903
000260 13 b4 d0 3d 7f 1d 9f 3d 76 33 5c 3d b6 3b 29 3c
       0.101905964 0.07769298 0.053760014 0.010329178
000270 d6 5d 1d 3d bb ea 90 3d 48 15 cf 3d 52 30 cd 3d
       0.038419567 0.07076021 0.10111481 0.10018982
000280 32 eb 0a bd 72 e5 92 be 00 f7 0d c0 12 75 8a 3c
       -0.033915706 -0.28690678 -2.2182007 0.016901527
000290 4a 6f a5 bc ee a3 46 be 07 72 e1 3d 1f 7c 98 bd
       -0.020194668 -0.19398472 0.11008077 -0.07445549
0002a0 51 ee 15 3d 3a af 3d be ce ea a9 3e a9 97 8e 3e
       0.03660423 -0.18523875 0.33186954 0.27850083
0002b0 ba 00 a8 3d 13 7b d8 3d 0e fd b6 3e 8d c7 ca 3e
       0.082032636 0.105703495 0.3573994 0.3960537
0002c0 92 34 be 3c b4 80 7b be 66 4d 77 3d 60 b2 97 3d
       0.023218427 -0.24560815 0.060376547 0.07407069
0002d0 77 20 50 3c 9f fa 23 3d ff 93 df bd 7a b8 5b be
       0.012703053 0.040033933 -0.109169 -0.21457091
0002e0 3a 35 ec 3c 62 f4 5f 3e 4c de b8 3d 12 a3 f4 3d
       0.028833974 0.21870568 0.09026775 0.11945166
0002f0 dd be 0b bd 30 9a a0 be 93 33 89 3d 12 33 27 c0
       -0.03411757 -0.31367636 0.0669929 -2.612492

fc2.bias f4 [3]
000000 6b cf 79 bd b2 02 c1 3c a8 fb 76 3d
       -0.060988825 0.023560856 0.06029859
